Packs/deep-rl/RL7 - DDPG/checkpoint_actor.pth (torch, 805247 bytes, 14 tensors)

fc1.weight f4 [600, 24]
000000 41 4f c8 ba 1c 42 e0 3d 15 09 2c be 0a d4 19 be
       -0.0015282409 0.10950109 -0.1680034 -0.15022293
000010 29 03 a1 bd 51 34 60 3d 74 86 84 bb 74 bb 25 3e
       -0.07861931 0.054737393 -0.0040443484 0.16184789
000020 7f 65 94 bc 97 3d 5d 3d 97 ad 7c bd cb 58 24 bd
       -0.018114803 0.054013815 -0.061688986 -0.040123742
000030 a0 b0 47 be aa 6e 0a be 0d 54 ac bd 5b c6 f7 3b
       -0.19500971 -0.13518777 -0.08414469 0.0075614876
000040 b6 44 a5 3d 58 d6 fa 3d 93 b4 0d be 2a 0b b6 bd
       0.08069746 0.12247914 -0.13838415 -0.08888848
000050 70 d7 97 3d ff 91 2d 3e 68 11 2c bd 1b 6a 1c 3e
       0.07414138 0.16950224 -0.042008787 0.15274851
000060 a3 c3 06 bd d5 f0 b0 3c f6 43 3d 3e 92 e7 41 be
       -0.032901417 0.021599213 0.18482956 -0.18935993
000070 87 96 03 be 69 ab 53 bd 54 f4 a2 bd 9d 98 34 3e
       -0.1285039 -0.05167714 -0.07956758 0.17636342
000080 0b 7c 07 be c0 70 c0 bd 32 08 12 be 4e c3 43 be
       -0.13230912 -0.09396505 -0.14260939 -0.19117472
000090 d0 07 f4 bd 06 ad 33 3e 38 8a ba 3d 95 9d ca 3d
       -0.119155526 0.17546472 0.091083944 0.09893338
0000a0 ba e2 2f 3c 4f 53 d6 bd 3d 74 0d 3d ee 29 43 be
       0.010735208 -0.104651086 0.03453468 -0.19058964
0000b0 77 08 17 be f0 83 d7 bd 71 e1 03 3e 02 1c f5 3d
       -0.14749323 -0.10523212 0.12878968 0.11968233
0000c0 c5 66 b9 bd 81 58 f1 bb d8 ae 05 3e fc cb 4f 3e
       -0.09052805 -0.007365287 0.13054979 0.20292658
0000d0 45 ea a5 3d 77 e6 e1 3c ac 25 0c 3e 89 25 f6 bd
       0.08101324 0.027575715 0.13686246 -0.12018878
0000e0 04 cd 1b 3d 8a 0e 22 be fc de 10 be b1 f4 d7 bd
       0.038037315 -0.15825859 -0.14147562 -0.10544718
0000f0 98 27 bd 3d 25 1f a8 3d 79 a1 f7 bd e9 96 7c 3d
       0.092360675 0.08209065 -0.12091345 0.061667357
000100 e6 7e e5 3d 0d 0f d3 bc ed 62 ff 3b 01 ba 41 3d
       0.112058446 -0.025764013 0.0077937753 0.047296528
000110 4d ac 01 3e e9 b3 48 3e 02 14 21 be 89 33 99 bd
       0.12663384 0.1959988 -0.15730289 -0.07480533
000120 dc 4b a4 3d 9d 2f 2d 3e ba e4 35 3e d7 6e 38 3e
       0.080222815 0.16912694 0.17763034 0.18011032
000130 03 65 26 3d 4d c3 35 be 17 d4 99 3c 18 c4 02 be
       0.040623676 -0.17750283 0.01877789 -0.12770116
000140 cb cc 42 be 2a b7 39 3e cb ee 1e 3e a5 81 50 be
       -0.19023435 0.18136278 0.1552078 -0.20361955
000150 40 7e 1c 3d 21 d9 0c bd 9e 96 09 bd 12 5d bf bd
       0.03820634 -0.034386758 -0.033590905 -0.09343924
000160 24 c3 a0 3d 3b 9c f7 bd 8c 40 99 3d cd 68 d3 3d
       0.0784972 -0.120903455 0.074830145 0.103227235
000170 3b a2 15 3e e9 4f 9c 3d a8 e0 4e be b8 97 07 be
       0.14612667 0.07632429 -0.20202887 -0.1324147
000180 9e bc d0 3d cc fe 2e 3d 3c 0e 23 be 1d b8 f0 bd
       0.10192226 0.042723462 -0.15923399 -0.11753867
000190 6c a3 44 3e f1 d7 0c 3e 58 47 b6 bd 88 6e 52 bd
       0.19202965 0.1375425 -0.089003265 -0.051374942
0001a0 73 1d 47 be dd 72 70 bb 20 68 1d be 3d 3b 21 be
       -0.19444828 -0.0036689558 -0.15371752 -0.15745254
0001b0 03 46 38 bc 00 12 fb 3c de 33 ab bd 2d 0f f8 3d
       -0.011247161 0.030648232 -0.08359502 0.121122696
0001c0 c3 65 fe bd 4d a9 3d 3e 58 3e 0f 3e 01 44 30 be
       -0.12421753 0.18521614 0.13988626 -0.17213441
0001d0 1f 17 50 bd 21 e8 16 3c 3f f9 f3 3c b5 4c 46 3d
       -0.0508033 0.009210617 0.029781936 0.048412997
0001e0 9d 0d a4 3d 0d 54 48 3c 0f fa cb bd 9d d0 c5 3d
       0.08010409 0.0122270705 -0.09959804 0.096589305
0001f0 55 81 48 be 60 c7 f7 bd 86 4c 51 bd cc a2 cb bd
       -0.19580586 -0.12098575 -0.05109837 -0.099431604
000200 1d 3f 92 bd e4 51 2b be 7c d9 31 bd 5d b8 32 3d
       -0.07140944 -0.16730458 -0.0434203 0.043632854
000210 e2 2b 08 be 85 a1 2b bc 1f a1 15 3e ab e6 ab bc
       -0.1329799 -0.010475521 0.14612244 -0.020984014
000220 19 e5 b9 3b f0 41 90 bc a5 35 29 3d b8 e7 04 3e
       0.0056730625 -0.017609566 0.041310925 0.12979019
000230 12 ff 45 3e cb bd 04 3e 0b 73 46 3e d1 de 71 bc
       0.19335583 0.12963025 0.19379823 -0.014762596
000240 1d c5 3b be ac 2f c6 bd 2f 53 0e 3e 45 70 ad ba
       -0.18336911 -0.096770614 0.1389892 -0.0013232311
000250 d3 c9 cf bd 48 2d 20 be 5f 9d 43 be d0 6a 30 be
       -0.10145917 -0.15642273 -0.19103001 -0.17228246
000260 1d 97 29 bd 53 42 e5 3d 53 03 e2 3d ad 96 49 be
       -0.04140388 0.11194291 0.1103579 -0.19686384
000270 87 62 02 3e 05 90 23 be 31 c2 30 bd 9e 81 a9 bd
       0.12732898 -0.15972908 -0.043153945 -0.08276676
000280 50 0b 21 bd 22 29 24 bd 20 91 3b be 7e 7a 34 be
       -0.03931743 -0.04007829 -0.1831708 -0.17624852
000290 d2 d4 02 bd 00 00 2d 3b 6e e8 bd bd 4a 7a 9d 3d
       -0.031941243 0.0026397705 -0.09272848 0.076893404
0002a0 0e 22 3c be ca b3 61 bc aa d1 37 3e 89 84 aa bd
       -0.18372366 -0.013775775 0.17951074 -0.0832606
0002b0 a0 bf 3c 3e a4 65 97 3d 9d a2 3c be 96 3f 04 3e
       0.18432474 0.07392433 -0.18421407 0.12914881
0002c0 fe f5 c0 bc 64 9e ba bd 63 25 27 3e 1d e9 28 be
       -0.023554798 -0.09112242 0.16322856 -0.16495176
0002d0 07 6f b3 3c 36 0d 2f bd 1d 44 15 3e 02 64 69 3d
       0.021903528 -0.04273721 0.14576764 0.05698014
0002e0 9b df c8 3d 04 a3 93 3d 21 0f 49 bd b7 d5 2f bd
       0.09808274 0.07208827 -0.049086694 -0.042928424
0002f0 88 40 2c be 13 84 e2 3d b5 f5 25 3e d1 04 0f 3e
       -0.16821492 0.110603474 0.16207011 0.13966681
000300 bd 70 13 be 96 28 15 3c f8 58 13 be bb 20 e6 bd
       -0.14398475 0.009103915 -0.14389408 -0.112367116
000310 0d 99 f3 bd 80 dd 8e 3d 89 1e f9 bd fc ed 91 bb
       -0.118944265 0.069758415 -0.12164027 -0.004453419
000320 fe b0 0c 3c bb bd 06 3e 39 01 1e be 37 7f 0f be
       0.00858712 0.13158314 -0.15430154 -0.14013372
000330 4f be f2 bd 62 4d 12 3e e3 45 96 bd 04 4f 30 3e
       -0.11852705 0.14287332 -0.073375486 0.17217642
000340 2f 2b 97 3d fc bd d3 3c 21 2a c7 ba b2 47 25 bd
       0.073812835 0.025847428 -0.001519505 -0.040351577
000350 8e cd d1 3c d3 ea 3e bd f1 fd bb ba f3 5b d5 3c
       0.025610711 -0.046610665 -0.0014342648 0.026044821
000360 bc 7f 23 be 76 1c db bd e0 c8 28 3e cd a1 29 be
       -0.15966696 -0.10698788 0.16482878 -0.16565628
000370 80 25 70 bc 16 c6 4e 3e 88 03 97 3d ea 60 bd 3b
       -0.014657378 0.20192751 0.073737204 0.0057793753
000380 3b 24 35 be 44 17 cf 3d 16 e2 14 be 38 56 6d bd
       -0.17689602 0.101118594 -0.1453937 -0.057943553
000390 e8 42 8c bd 27 a1 f7 bc a4 53 12 3b 63 67 2c 3e
       -0.06848699 -0.03022821 0.0022327686 0.16836314
0003a0 ee c0 d0 3c 74 38 3b 3e 5f b9 ff 3d b8 25 04 be
       0.025482621 0.18283254 0.124865286 -0.12905014
0003b0 d6 7e bb 3d f4 c1 13 be b3 2d b1 bd ee e9 75 3d
       0.091550514 -0.14429456 -0.086512946 0.060037546
0003c0 1b 09 8a 3d a5 d0 1c 3e 63 93 86 bd ef 52 ab 39
       0.06740018 0.15313967 -0.065710805 0.00032677452
0003d0 56 38 d7 3d 07 25 4a be a3 1e 17 3e 8e d8 2c be
       0.10508792 -0.19740687 0.1475778 -0.16879484
0003e0 09 60 38 3b 56 26 0e bd 75 2c dc bd b2 03 dd 3c
       0.0028133413 -0.03470453 -0.10750667 0.026979301
0003f0 5b d8 2c 3e fb 67 74 bd 0d 31 f8 bd 18 9c 9a bd
       0.16879408 -0.059669476 -0.12118731 -0.07549304

fc1.bias f4 [600]
000000 86 21 41 bc bb f8 b9 bd 3b 5e f6 bd 8f 05 35 be
       -0.011787778 -0.09080645 -0.12029692 -0.17677902
000010 7d 52 41 3d ec f0 07 bd 9c ca f9 bd 8f ec 37 3e
       0.047197808 -0.033188745 -0.12196848 0.17961334
000020 37 61 0f 3e 23 5d 34 3d 8f 1d 60 3d 86 f9 d9 bc
       0.14001928 0.044034135 0.05471569 -0.02660824
000030 0e 39 1a 3e 1e be 49 be 6d 15 fe bd d4 f5 13 3e
       0.15060827 -0.1970143 -0.124064304 0.14449245
000040 0e 42 14 3e 11 bb 0d bc 8c 22 77 bd 0e 3d c1 3d
       0.14478323 -0.008650557 -0.06033568 0.094354734
000050 44 2e 12 3e a6 22 9b bd f3 2c d1 3d 00 94 c9 3d
       0.14275461 -0.07574968 0.102136515 0.09842682
000060 4b dc ba 3c e3 ee fb bd 35 6c 13 3d a8 5d 04 bd
       0.022810122 -0.123014234 0.035991866 -0.03231588
000070 2c bc 66 3d 36 02 18 be 6f ad 9e 3d c5 c2 37 3e
       0.0563318 -0.14844593 0.077479236 0.17945392
000080 7a 76 cb bd ea ac 18 3e a8 ec b6 3d b6 b0 f0 bc
       -0.09934707 0.14909711 0.08931857 -0.029381137
000090 66 cb fa bd 19 d4 d6 3d 88 61 1c be 29 00 ef 3d
       -0.122458264 0.10489673 -0.1527158 0.116699524
0000a0 f3 30 29 be df 7b dd bd 01 0d a8 3c 8d ad d4 3d
       -0.16522579 -0.10814642 0.020514013 0.10384665
0000b0 0a 38 41 be d0 25 65 3d 2a 87 74 bb 37 4e f3 bd
       -0.18869033 0.055944264 -0.003731201 -0.11880153
0000c0 93 5b 5b bd 02 49 24 3e f9 67 15 be 39 c3 bf bd
       -0.05355413 0.16043475 -0.14590444 -0.09363408
0000d0 c6 7d 19 3d b9 92 2a be be 80 ba 3c 04 15 5e 3d
       0.037473463 -0.16657533 0.022766467 0.05421926
0000e0 d9 fe 85 3d 14 14 a0 3d 0f 97 37 3e fd 93 9b 3c
       0.06542749 0.078163296 0.17928718 0.018991465
0000f0 a8 5f 3e 3e 45 c1 bf bd 69 15 be 3c 6d af 04 be
       0.18591177 -0.09363035 0.023203569 -0.12957545
000100 b7 28 4c be 38 b9 db 3c 4a f9 5a bc 32 aa dd bd
       -0.19937406 0.026821718 -0.013365099 -0.10823478
000110 ee 59 c0 bd 4a d0 1e be 08 51 26 3d cf c3 14 3e
       -0.09392153 -0.15509143 0.04060462 0.1452782
000120 68 6f bd bd 71 bc 35 3e 12 16 25 be 15 c0 29 be
       -0.09249765 0.17747666 -0.161217 -0.1657718
000130 6a 39 4e 3e a4 75 88 3d 89 df e2 bd 80 6c d3 bd
       0.20139089 0.06663063 -0.11077792 -0.10323429
000140 4b 75 b7 bb 1a 39 27 be 74 a2 f3 3d 85 a4 82 bd
       -0.005598699 -0.16330376 0.1189622 -0.06379036
000150 18 f3 3d 3e 9f a4 18 3e a0 a0 20 3e 2a 1d 3e be
       0.18549764 0.14906548 0.15686274 -0.18565813
000160 75 ec d9 3d ef 43 00 be 02 72 c7 bd 5f 08 01 3e
       0.10640804 -0.12525915 -0.09738542 0.1260085
000170 9d a0 37 be 60 b3 88 bd 26 74 b6 3d e7 c3 d0 bd
       -0.17932363 -0.06674838 0.08908872 -0.101936154
000180 1f 96 39 3e b3 e3 0c 3e a5 81 12 be 43 bb 1a 3d
       0.18123673 0.13758735 -0.14307268 0.037776243
000190 88 a2 4a be 6d 9b f3 3d 2a 1e 50 bd ab e9 53 3d
       -0.19788563 0.118948795 -0.050810017 0.051736515
0001a0 fe 6a 9d bd 6a fa 1e 3e 05 32 e1 3c 9b fe 19 be
       -0.07686423 0.15525213 0.027489671 -0.1503853
0001b0 58 5d 4b be e3 6d b1 bd cf ac 95 bc a5 20 60 bd
       -0.19859827 -0.08663537 -0.018270878 -0.054718632
0001c0 78 c9 0a bd 57 ad d7 bd 6f fe 94 bb 8e cf bc 3d
       -0.03388354 -0.10531109 -0.0045469324 0.092192754
0001d0 c5 df c0 bd 90 f4 2f bd e9 c0 bb bc 52 0d 19 3e
       -0.09417681 -0.042957842 -0.022919135 0.14946488
0001e0 d6 60 35 bc b5 fa 83 bd b6 ff 00 3e 2a 1e 22 3d
       -0.011070451 -0.06444303 0.12597546 0.039579548
0001f0 95 78 ab 3d 9c 88 c5 bd 83 f2 ad bd 3d 11 cd 3d
       0.083726086 -0.09645197 -0.08493521 0.100130536
000200 bb 60 f1 3d ff 39 84 3d b1 10 75 3d 62 f8 c4 3a
       0.11786028 0.064563744 0.05983037 0.0015027637
000210 df c1 29 be 45 43 fc 3c 03 25 44 3d 36 90 ea 3d
       -0.16577862 0.030793795 0.04788686 0.11453287
000220 56 75 df 3c 92 40 4f 3e e6 68 be bc 44 0a 01 3e
       0.02727763 0.20239475 -0.023243379 0.12601572
000230 e5 ed 38 be 26 32 fb bc ab e1 06 be 56 c0 80 39
       -0.180595 -0.030663561 -0.13172023 0.00024557364
000240 0e 35 3a be ce fd c4 bd 72 35 25 3e 6e f5 aa 3d
       -0.18184301 -0.09618722 0.16133669 0.08347593
000250 1e a1 1e 3e 59 39 ad 3d 86 d9 fe 3d ec 18 e2 bd
       0.15491149 0.08458204 0.12443833 -0.1103991
000260 a3 24 98 3d ad 9c 45 be e5 dc 18 be 68 87 43 be
       0.07428863 -0.19298048 -0.14928015 -0.19094622
000270 5d 00 f8 3d dc 13 82 3d 49 55 02 be 73 38 7c 3c
       0.12109444 0.06351444 -0.12727846 0.015394318
000280 01 94 36 3e a6 f9 eb bd 71 b1 0f be 79 10 21 be
       0.17829897 -0.11522226 -0.14032532 -0.1572894
000290 4f fb e2 bc 77 61 3a 3e 2b 20 27 3d bf 22 9d bc
       -0.027707724 0.18201242 0.040802162 -0.019181607
0002a0 23 25 04 bd df 0a 63 bd d3 7a b4 bd 7c 1a 44 3e
       -0.03226198 -0.05543029 -0.08812489 0.19150728
0002b0 ce 2d a2 bd 3a 65 94 bd 0f 59 8f bd f8 db 36 3e
       -0.07918893 -0.0724587 -0.069994085 0.17857349
0002c0 c0 c2 fe bd b8 4f 4d 3e 07 ef 09 3b a2 e6 ae bd
       -0.12439489 0.20049942 0.0021047012 -0.085400835
0002d0 24 c9 01 3e e2 11 2e 3e 4a 65 82 bd d6 30 ee 3d
       0.12674385 0.16999009 -0.063669756 0.116304085
0002e0 70 1e f7 bd e2 ba b0 bd 5d 75 09 3e 76 7f 40 3e
       -0.12066352 -0.08629395 0.13423677 0.18798622
0002f0 fc 66 30 be 74 7d 07 be 95 e8 18 be 00 79 90 bc
       -0.17226785 -0.1323145 -0.14932473 -0.017635822
000300 bc c8 b5 bc 9e ee 04 3e 71 d6 4e 3d 46 e0 1e be
       -0.022190444 0.1298165 0.050497476 -0.15515241
000310 9a a3 6e bc f3 87 f6 bd f9 31 a9 3c af 86 84 3d
       -0.014565373 -0.12037649 0.020653712 0.06471001
000320 65 15 3f be af d0 50 3e 2c 46 de 3d cd 54 4f be
       -0.18660505 0.20392106 0.10853228 -0.20247193
000330 37 c8 b9 bd 10 47 38 3e 2b 84 5c 3c 2c 66 24 be
       -0.09071391 0.17995858 0.013459246 -0.160546
000340 03 5b c9 bd e5 fb 3c be 29 bc 7d 3d 45 58 d2 bd
       -0.09831812 -0.18455465 0.06194702 -0.10270742
000350 d8 80 45 3e e2 aa 6b 3d 0a 46 db bd 4c 0b 17 3e
       0.19287431 0.057536013 -0.10706718 0.14750403
000360 50 68 22 bd 3b 33 0b be c8 c9 29 be bd 93 bf bd
       -0.03965026 -0.13593762 -0.1658088 -0.09354351
000370 be 7f ae 3d 30 fa 3d 3d e3 ec 7f bd b7 1d 91 bd
       0.08520459 0.046381176 -0.062481772 -0.07085746
000380 f9 ff 52 bd 4e 40 0d be 43 59 41 3e 95 98 39 be
       -0.051513646 -0.13794062 0.18881707 -0.18124612
000390 cd be c1 bc 59 45 e5 3c f8 62 6f 3a 92 28 12 bc
       -0.023650551 0.02798717 0.0009131874 -0.0089208055
0003a0 8e d7 25 be ac 65 b5 bd 86 5e e8 bd 2b 72 3e 3e
       -0.16195509 -0.08857283 -0.11346154 0.18598239
0003b0 35 00 7f bd d7 12 16 be d0 cb 11 be 44 ef 17 be
       -0.062256057 -0.14655624 -0.14237905 -0.14837366
0003c0 80 df 17 bd a9 3e b0 bd c6 b2 17 be 5b 67 90 bd
       -0.03707838 -0.086057015 -0.1481429 -0.070509635
0003d0 8d 13 27 3e 00 d7 39 be b0 67 82 bc d9 82 43 3e
       0.16316052 -0.18148422 -0.015918583 0.19092883
0003e0 2b 36 05 3e 97 cb 48 3d e2 08 b0 3d 9d 41 92 bd
       0.13008945 0.049022283 0.08595444 -0.07141421
0003f0 4b f7 21 be b2 7c 00 be 9b bc f3 bd 51 b5 18 3e
       -0.15816991 -0.12547567 -0.11901208 0.14912917

fc2.weight f4 [300, 600]
000000 f0 72 7c ba 87 66 90 39 fa ce b2 ba 12 43 7c ba
       -0.0009630164 0.0002754221 -0.0013642006 -0.00096230314
000010 9c a8 3e b9 1c 03 70 3a db 9e 9b 3a ce 6e 11 ba
       -0.00018182624 0.0009155737 0.0011872904 -0.0005547822
000020 27 2c ec b9 2d 96 93 3a 62 f8 14 ba 1f 9a 33 ba
       -0.00045046324 0.0011259966 -0.0005682764 -0.0006851274
000030 de cd 1d 3a fa 9e 25 3a 92 54 3c ba 1c 61 aa 3a
       0.00060197513 0.000631794 -0.0007184233 0.0012998912
000040 78 d3 4b 3a ee ca bc ba 18 ac 07 3a 38 63 1e 3a
       0.0007775347 -0.001440374 0.0005175485 0.00060420064
000050 77 f8 2a b9 ef a6 22 ba 28 8d 52 ba 58 58 b3 3a
       -0.00016305024 -0.00062046846 -0.0008031898 0.0013682945
000060 cb 20 7a ba aa 1a 31 3a ad 71 84 3a 92 96 d4 b9
       -0.00095416297 0.00067559874 0.0010104679 -0.00040547975
000070 f5 47 1e ba bb 33 7d 3a 08 74 4e 38 fc 69 7c b7
       -0.0006037944 0.00096588925 4.922229e-05 -1.5045047e-05
000080 56 d3 51 ba 39 3c c4 b9 a8 ec 21 39 9e 8f 13 3a
       -0.0008004209 -0.00037428903 0.00015442318 0.00056290056
000090 44 a4 bc ba ae e9 0f ba 63 b6 5e 3a 00 64 cb 38
       -0.0014392217 -0.0005489838 0.00084958057 9.698421e-05
0000a0 62 af 00 3a fa 33 15 3a 7e af 86 3a 8f f4 cf 39
       0.00049089466 0.0005691644 0.001027569 0.00039664327
0000b0 cf 77 79 b9 0a 20 5b ba dd 2a 67 ba 54 e6 80 ba
       -0.00023791123 -0.0008358961 -0.0008818338 -0.0009834268
0000c0 a6 b3 d6 38 ba 41 2a b9 2e c7 b0 ba f8 63 a1 3a
       0.00010237777 -0.00016236948 -0.0013487095 0.0012313118
0000d0 05 1e 17 3a 00 c3 87 ba 6d 67 bc ba ac 30 1c 3a
       0.0005764666 -0.0010357797 -0.0014374085 0.00059581804
0000e0 38 2c c2 ba 88 c8 16 3a 49 83 0f 3a 28 28 9d ba
       -0.0014814204 0.00057519274 0.000547458 -0.0011990117
0000f0 be fb 1e 3a 1e 0e 06 ba 84 21 2e ba 76 85 35 3a
       0.0006064734 -0.0005113798 -0.00066425675 0.0006924489
000100 eb e6 61 3a cd 34 7f 3a ff 5f 8a 3a 34 d2 95 3a
       0.00086174783 0.0009735346 0.0010557174 0.0011430443
000110 ee 35 3a ba 2e c4 72 3a 74 ba b5 3a a8 88 5b 3a
       -0.0007103373 0.00092608004 0.0013864771 0.00083745504
000120 37 d1 be ba 95 42 ba 3a 42 25 df 39 a3 33 ac 3a
       -0.00145582 0.0014210517 0.00042561634 0.0013137948
000130 62 ad 0b 3a fe 0a 93 3a 29 76 81 ba 4a 8c 50 37
       0.0005328265 0.0011218486 -0.0009877133 1.243043e-05
000140 c9 d9 26 ba b0 b5 14 3a ef a0 28 3a bb ce 94 3a
       -0.000636485 0.00056728255 0.00064326724 0.0011353114
000150 15 0c 32 3a 27 98 21 ba e5 31 28 ba f9 dc 87 3a
       0.00067919615 -0.0006164335 -0.0006416126 0.0010365538
000160 32 41 64 ba 7b ee a2 ba fe 28 3d ba 30 25 2b 3a
       -0.00087072246 -0.0012430692 -0.0007215886 0.00065286737
000170 92 5a 69 3a c7 65 bc ba 52 ef 86 39 f2 9a 4c 39
       0.00089017407 -0.0014373594 0.0002573678 0.00019512678
000180 e8 c1 17 39 3c 51 45 39 a4 a0 53 3a 2c 0d 2f ba
       0.00014472718 0.00018817646 0.00080729485 -0.0006677683
000190 f6 ae 67 3a 77 b1 91 b9 18 98 12 3a f9 22 5d ba
       0.0008838022 -0.00027788777 0.0005592122 -0.0008435692
0001a0 54 43 7d 37 88 03 80 ba 04 56 c0 35 4e 75 b7 3a
       1.5095651e-05 -0.0009766677 1.4330149e-06 0.0013996752
0001b0 06 2f 74 ba f8 9a 84 b9 44 55 f8 39 5c d2 90 39
       -0.00093148684 -0.00025292463 0.00047365774 0.0002762255
0001c0 53 1a 23 3a 7e fb 8a 3a be 45 92 ba 30 a6 c2 ba
       0.0006221879 0.0010603515 -0.0011159701 -0.0014850553
0001d0 0d 3b b4 3a bc c2 04 39 f1 52 59 ba 5b 8c 60 ba
       0.0013750509 0.00012661045 -0.00082902523 -0.00085658365
0001e0 4a 1c 03 38 5e 79 b3 ba c6 31 98 ba 4e 75 cb 39
       3.125918e-05 -0.0013692786 -0.0011611513 0.00038806576
0001f0 a0 4a 5f 38 dd 1a e2 39 ac 80 2f b9 5c 74 74 ba
       5.3236843e-05 0.00043126094 -0.00016737235 -0.00093252
000200 1b b3 1e 3a f7 aa ae ba 5d 6d 4a ba bf c8 97 b9
       0.00060539105 -0.0013326098 -0.0007721985 -0.00028950532
000210 52 52 c3 39 63 2a 60 3a 72 98 83 3a 77 e6 33 39
       0.00037254632 0.0008551238 0.0010039939 0.00017156625
000220 7f 9e ea b9 5b 17 97 3a 4f 21 56 3a cb d0 dd b9
       -0.00044750047 0.0011527346 0.00081684155 -0.00042307968
000230 12 21 ac ba 50 55 51 38 92 6c fe b9 15 1a aa 38
       -0.0013132414 4.9908936e-05 -0.00048527546 8.11109e-05
000240 fa a0 9a 39 f4 69 ba ba 41 7e 43 ba a8 4a 8c ba
       0.00029493106 -0.001422225 -0.0007457473 -0.0010703402
000250 98 5d 21 3a c1 53 a8 ba 46 86 6f 39 1b 71 57 ba
       0.0006155609 -0.0012842343 0.00022842837 -0.0008218453
000260 aa f7 8b ba 08 3f b5 3a 9a e2 09 ba 04 34 99 ba
       -0.0010678668 0.0013827989 -0.00052599015 -0.0011688475
000270 af cb 6b 3a fc 87 bf 3a 78 45 94 ba 44 71 44 ba
       0.000899489 0.001461267 -0.0011312207 -0.00074936845
000280 bb 8a a5 ba 16 72 10 ba 96 27 cd 38 6b ca 52 b9
       -0.0012629846 -0.0005510164 9.782535e-05 -0.00020102567
000290 f4 22 97 b9 d9 7a c2 38 3b 05 aa 3a d4 7c c1 3a
       -0.00028827006 9.273523e-05 0.001297153 0.0014761933
0002a0 9d b1 5e ba 9a a8 49 ba 19 ed 85 3a 4e 7c 80 ba
       -0.00084950944 -0.0007692665 0.0010217755 -0.0009802671
0002b0 e5 60 c7 39 d7 49 b8 3a 84 e8 36 3a 8f ef c2 ba
       0.0003802843 0.0014060092 0.00069773966 -0.0014872419
0002c0 9b 3d af 3a 11 00 4e b8 4e 05 31 3a 3c 6b 0f 3a
       0.00133698 -4.911429e-05 0.00067528046 0.0005470996
0002d0 f0 c4 8f 3a a2 63 c1 39 59 c9 87 ba 9f 56 2d ba
       0.0010968726 0.0003688606 -0.0010359689 -0.0006612334
0002e0 3e ab 0a 3a 2f 44 e7 39 e3 d6 78 ba 4c 20 99 3a
       0.00052897993 0.00044110554 -0.000949247 0.0011682599
0002f0 86 6c a6 3a f1 07 94 ba 29 31 6b 3a 81 2c be b9
       0.0012697137 -0.0011293871 0.0008971864 -0.00036272782
000300 00 3c 58 3a e7 82 b3 3a cb db 13 3a 15 47 83 3a
       0.0008248687 0.0013695628 0.00056403567 0.0010015691
000310 a4 d0 b8 37 92 4c af 3a bc 74 83 3a 7d bf 63 36
       2.2031665e-05 0.001337426 0.0010029296 3.3937097e-06
000320 d2 65 31 3a 9b d6 1a ba b4 4d bb 3a 80 c0 96 3a
       0.00067671866 -0.00059066125 0.0014290125 0.0011501461
000330 5d 66 b5 ba 13 29 56 b9 b8 ec 29 b9 d5 60 54 b8
       -0.0013839711 -0.00020423932 -0.0001620528 -5.063492e-05
000340 fe 49 0a ba 0c 60 3a 39 dd 7c 54 39 8b 40 4a ba
       -0.0005275308 0.00017774123 0.0002026441 -0.0007715306
000350 07 d2 a4 ba cb e4 67 ba ad 5c 84 3a f8 ed 29 3a
       -0.00125748 -0.00088460435 0.001009842 0.00064822985
000360 db 11 52 39 1d 27 63 3a 80 29 6f ba f7 33 75 ba
       0.00020033812 0.0008665191 -0.00091233104 -0.00093537517
000370 cb 09 10 39 0b 48 17 3a 54 87 ce 39 f6 11 85 ba
       0.00013736558 0.0005770928 0.0003939221 -0.0010152448
000380 88 53 3d ba 3a 84 87 3a 7f 12 a4 39 a9 0c 40 3a
       -0.0007222225 0.0010339089 0.00031294298 0.0007326105
000390 01 1f 1d ba ca 06 a1 3a ea 1c a2 3a f7 98 61 3a
       -0.00059936946 0.0012285348 0.0012368236 0.00086058624
0003a0 52 cc ca 38 6c 7e 58 ba 88 b9 8f ba 19 28 e0 39
       9.670168e-05 -0.00082585844 -0.0010965327 0.00042754484
0003b0 06 a9 30 b9 6f d5 c3 ba 4c 5f 09 3a a4 d8 f2 38
       -0.00016847634 -0.0014940928 0.00052403356 0.00011579812
0003c0 78 e0 8b 3a 91 7c 88 39 c3 35 67 3a a4 39 8c 3a
       0.0010671755 0.0002603275 0.0008819962 0.0010698331
0003d0 2f 2d 1b ba f5 77 8c ba 4e 1b da b9 0c a4 68 ba
       -0.00059195136 -0.0010716902 -0.00041600544 -0.00088745425
0003e0 b2 64 d1 39 5e 20 6f ba 78 53 62 3a 6a ce ae 3a
       0.0003993861 -0.00091219496 0.00086336536 0.0013336663
0003f0 1c f9 4f ba 82 37 91 3a 83 1c 13 3a 29 b7 75 ba
       -0.00079335435 0.0011079165 0.00056118536 -0.0009373301

fc2.bias f4 [300]
000000 9a 38 4a 3c 6b c2 8d bc 2d 6a 08 3d 30 c4 da bc
       0.012342596 -0.01730462 0.033304382 -0.026704878
000010 5c d5 18 bd 78 bf 13 3c a0 75 26 3d 20 ff 4b 39
       -0.03731285 0.009017818 0.04063952 0.0001945463
000020 ff 49 a8 bb 04 22 c6 bc 2f e6 a9 3c 32 b7 14 bb
       -0.005135774 -0.024186142 0.020739643 -0.00226922
000030 87 b4 cc 3c 6c 8a 49 3b e3 24 70 bb 00 ac b7 3b
       0.024988426 0.0030752672 -0.003664308 0.005605221
000040 cf 82 01 3d 67 42 15 bd 71 b4 0a 3d 92 e9 03 bd
       0.03161889 -0.03644028 0.03386349 -0.032205172
000050 e3 2e 1a bd 46 64 39 3c cf ef de ba 30 61 1a 3d
       -0.03764237 0.011315411 -0.0017008724 0.03769034
000060 8e e4 e4 bc 2d 65 b1 3b a2 e0 1c bc c9 21 14 bd
       -0.027941015 0.0054136724 -0.009575041 -0.036165033
000070 48 44 de bc 06 4b ab bc eb 59 12 3d 0c 2b 90 3c
       -0.027132168 -0.020909797 0.035730284 0.017598651
000080 d6 17 64 bc a2 b7 f0 bc d2 ff ef 3c b6 40 90 bc
       -0.013921699 -0.029384438 0.02929679 -0.017608982
000090 c2 5a 25 bd 31 2f 0f bd 82 f2 f3 3c 67 84 22 bc
       -0.040369757 -0.034957115 0.029778723 -0.0099192625
0000a0 24 4f d5 bc f7 ee 1b bd dc 12 c2 bc 8b a2 91 ba
       -0.026038714 -0.03806969 -0.023690633 -0.0011111064
0000b0 2f ff 6a 3c 40 61 72 3c ef 88 d8 b9 7d b3 9c 3c
       0.014343067 0.014793694 -0.00041300754 0.019128555
0000c0 04 48 c3 bc 00 fb 3e 3c a7 6f 26 bb 1a bf f8 3b
       -0.02383805 0.011656523 -0.002539614 0.0075911405
0000d0 fb 2a c3 bb 1e 88 8c 3c 27 bf 12 bc 06 67 d9 ba
       -0.0059560514 0.01715475 -0.008956707 -0.001658649
0000e0 74 63 d6 bc bd 85 b0 3b 5a 74 de 3b 13 22 1c 3d
       -0.02617047 0.0053870366 0.0067887725 0.038118433
0000f0 f3 cf 88 bc aa b8 5f 3c 52 2d c1 3c 3e d2 12 3d
       -0.01670072 0.013654867 0.02358118 0.035845034
000100 e6 b2 a5 bc 46 bf 1f 3c f4 0c bb bb 8c de 15 3d
       -0.020226907 0.009750193 -0.0057083312 0.03658919
000110 e1 15 d8 3c 89 25 0c bc f8 21 0a 3d 38 13 d9 3c
       0.02637762 -0.008553871 0.0337238 0.026498422
000120 8a 86 dd bc fb c7 fd bc 88 68 11 bc 67 1c 15 3d
       -0.027041692 -0.030979147 -0.00887502 0.03640404
000130 c8 a2 97 bc 8e da e2 bc 4f 41 05 bd c0 3c c4 bc
       -0.018510237 -0.027692106 -0.032532986 -0.02395475
000140 98 73 b1 3c 15 62 4c ba 75 c7 d3 bb 6b eb 9b bc
       0.021661565 -0.0007796598 -0.006462986 -0.019033154
000150 94 dd 51 bc 2e 02 7b bc cb 08 45 bb ce e0 cd bc
       -0.012809176 -0.015320344 -0.0030065055 -0.02513161
000160 d4 ad 01 bd 8a f0 b1 bc 31 d4 10 3d 95 ff 1c bd
       -0.031659916 -0.021721143 0.03535861 -0.03832968
000170 e3 ac fe 3b 4a 87 00 bd 65 b7 b9 3c 64 ed 87 bc
       0.0077720745 -0.03137902 0.022670457 -0.016592689
000180 2a 3c ea 39 e0 a4 f9 3c 4e 40 1d 3d 64 fd 31 3c
       0.00044676784 0.030474126 0.038391404 0.010863636
000190 83 e8 02 bc 87 ce fe bb 3f f1 01 3d af 73 1c bd
       -0.007990005 -0.007776085 0.03172421 -0.038196262
0001a0 d0 1a e2 bc cb cb f6 3c 98 fe 55 3c 66 3d e9 3c
       -0.027600676 0.030126473 0.013061188 0.02847166
0001b0 0b 91 02 bd 1b 3e b6 3c 6b c8 08 bc 2a a0 84 3c
       -0.031876605 0.022246411 -0.008348565 0.016189653
0001c0 d9 14 ed bc 37 78 f6 bc 08 5c 8e bc 02 c9 f7 3b
       -0.028940605 -0.03008662 -0.017377868 0.007561804
0001d0 b4 11 af bb 11 68 19 bd 27 e0 5b 3c d9 d0 08 bc
       -0.0053426865 -0.03745276 0.013420141 -0.008350574
0001e0 a7 9a 14 bd d0 28 88 3c e4 35 de bc f1 49 00 bb
       -0.0362803 0.016621023 -0.027125306 -0.0019575323
0001f0 c1 51 0c bd c9 2b ef bc 57 12 92 bc 9f 84 1e bd
       -0.034257654 -0.029195683 -0.01783101 -0.038700696
000200 11 18 28 bb 3c c8 ac ba e1 81 21 3c aa 4c 1f bd
       -0.002564911 -0.0013182233 0.009857626 -0.038891472
000210 1c ad 97 3b e1 6d cb bc be 35 d2 bc 7a b3 cb 3c
       0.0046287905 -0.024832668 -0.025660392 0.024865855
000220 c7 ef b3 bc a2 c1 51 bc 74 d6 d4 3a 15 12 0a bd
       -0.02196492 -0.012802513 0.0016238228 -0.03370865
000230 71 72 4b 3c c3 c9 02 bd 50 b5 22 3d cb ab 15 bd
       0.012417422 -0.031930696 0.039723694 -0.036540788
000240 3c d9 d3 bc 37 14 0f 3d 3f 72 9e ba af 15 41 bc
       -0.025860421 0.034931388 -0.0012088491 -0.011784955
000250 72 98 ff 3b 45 8e 8c 3b 7b 89 c9 bc c1 17 33 3b
       0.0078001553 0.004289421 -0.024601689 0.002732739
000260 6c cc f5 3c 90 f2 20 bc 48 ae 66 3c a0 4d af bc
       0.030004703 -0.009823456 0.014079638 -0.02139932
000270 2d 19 99 3c ee 12 9e bc f8 c7 08 bc 96 5b 5f 39
       0.018688763 -0.019296136 -0.0083484575 0.00021301056
000280 38 7d 8d 3b 91 d3 bf bc 26 28 fb bc e7 71 a5 3c
       0.0043179058 -0.023416312 -0.030658793 0.020195914
000290 62 97 bb 3c 72 8b b9 3c ae f8 45 3c 5d 0e fd 3c
       0.022899333 0.0226495 0.012083216 0.030890638
0002a0 77 7b 81 3c 50 84 f7 bc f1 29 9d 3c 3e aa b7 3c
       0.015805943 -0.030214459 0.019185038 0.022420045
0002b0 ba f2 01 3c 75 7c aa bc 4a 21 e9 3b 81 a0 d9 3c
       0.007931406 -0.020811299 0.007114564 0.026565792
0002c0 63 a6 03 3d 73 3b 34 bc 1a c9 80 3c d0 06 ce 3c
       0.0321411 -0.011000502 0.015720893 0.025149733
0002d0 41 26 7d 3c ce c6 13 3d dc b4 22 3c 88 ea eb 3c
       0.015451015 0.036078267 0.009930816 0.028798357
0002e0 c5 18 b9 3b 16 c8 0b 3c 47 d2 31 3c e4 d4 16 bd
       0.0056487047 0.008531591 0.010853357 -0.036824122
0002f0 c8 d8 8e 3c 32 cd 3e 3b 73 ae aa bb ca 5b 05 bd
       0.017437354 0.0029114005 -0.0052087842 -0.03255824
000300 2b a6 fc bc 85 c9 15 bc 83 5f 51 bc f3 c0 74 bc
       -0.030840954 -0.009142284 -0.012779119 -0.014938581
000310 90 e4 a2 bb c2 7b 22 3d 78 3f dc bc 4a 11 3f bb
       -0.0049710944 0.039668806 -0.026885733 -0.0029154592
000320 02 06 ca 3c 6c 61 a1 b7 09 35 df bc 4c ca a4 bc
       0.024661068 -1.9238061e-05 -0.027246969 -0.020115994
000330 16 1f e9 3c aa 7e 10 3d fc 58 0a 3d 93 89 05 bd
       0.028457206 0.035277046 0.03377627 -0.032601904
000340 28 1f 10 bc 3f 8d 11 bd b7 5b 13 bd 00 44 88 bc
       -0.008796491 -0.035535093 -0.035976138 -0.016633987
000350 94 6a 7a 3b 02 ea 81 bc ec 98 c0 3b 1c c0 95 3b
       0.0038210498 -0.015858654 0.0058776047 0.0045700204
000360 22 69 f8 3c 32 55 16 3d 75 d5 4e 3c f6 08 07 bd
       0.030323569 0.036702342 0.012624134 -0.03296753
000370 48 c5 87 3c db ca 26 ba d1 cc 06 3d 96 6c 62 bc
       0.016573563 -0.0006362625 0.032910172 -0.013819834
000380 a1 32 ce 3b e4 17 0a bd 4f 29 c0 bb 26 a0 98 bc
       0.0062926565 -0.03371419 -0.0058642994 -0.018631052
000390 34 94 a8 bc 55 30 dc 3c 3a fc 07 3d 5d 9e 86 ba
       -0.020578481 0.026878515 0.033199526 -0.0010270585
0003a0 63 e8 ef 3c 39 eb 7c 3c ef cf 29 bc 87 27 9a bb
       0.029285615 0.015436941 -0.010364517 -0.004704419
0003b0 1f 3c d7 bc 1f c6 6e bc b2 96 b2 3c 93 f6 aa 3c
       -0.026273785 -0.014573603 0.021800373 0.020869529
0003c0 b9 d8 10 3c e4 c2 e8 bc a6 b5 66 3c 55 1f b9 3c
       0.008840733 -0.028413244 0.014081394 0.022597948
0003d0 88 16 fb 3c 9e 84 ff 3c 9f 42 12 3d b2 22 23 bd
       0.030650392 0.031191166 0.035708066 -0.03982801
0003e0 b2 41 18 3d 2c d5 af bb 78 9f 0d 3c b1 30 18 bd
       0.037172027 -0.0053659882 0.008643977 -0.03715581
0003f0 16 c0 8b 3c 17 a0 5c bb 60 28 dd bc 96 98 17 bd
       0.017059367 -0.0033664757 -0.026996791 -0.03701075

fc3.weight f4 [4, 300]
000000 fa 22 74 b9 c7 55 55 ba 30 df 8d ba d7 b0 eb ba
       -0.00023282683 -0.0008138087 -0.0010823961 -0.001798178
000010 25 76 6f ba 31 a8 e1 37 e2 13 a2 ba 4c d7 a1 3a
       -0.00091347314 2.690041e-05 -0.0012365545 0.0012347489
000020 5c 2f 65 b9 46 da 43 3b 0e e3 05 bb 21 90 4d b9
       -0.00021856785 0.002988474 -0.0020429525 -0.00019604016
000030 cd 60 14 3a e3 9d 80 b8 27 71 27 3b fa 9a 03 bb
       0.00056601764 -6.132924e-05 0.0025549622 -0.0020081387
000040 18 65 bf 3a 38 65 a2 ba 77 80 22 bb 15 4a 7e ba
       0.0014602272 -0.0012389785 -0.002479581 -0.000970037
000050 51 b5 00 bb b4 6c 7a ba 2d a7 36 ba 94 93 55 3a
       -0.0019639323 -0.0009552941 -0.000696766 0.0008147296
000060 0d ca 07 bb 60 8f ba b9 6c 2b 1b 3b 28 02 c4 ba
       -0.0020719797 -0.00035583507 0.0023677005 -0.0014954256
000070 a8 5e ba ba 71 fa 08 3b 8f 68 18 ba 8b 50 cf 3a
       -0.0014218884 0.0020901228 -0.000581392 0.001581685
000080 1b 0f a0 39 bf 2a 0a bb 75 3d 69 ba 3f df d9 ba
       0.00030528833 -0.0021082608 -0.00088974024 -0.0016622319
000090 d7 60 16 ba 88 a0 d0 ba 50 ad 3e 39 86 09 fd ba
       -0.0005736476 -0.0015916983 0.00018184376 -0.0019305206
0000a0 8a 86 1a bb 3b 51 ff 3a 6b 80 2b bb 94 bb 42 3b
       -0.0023578727 0.0019479165 -0.0026169072 0.0029713856
0000b0 33 af 2e ba 7a 95 06 bb 29 7b 03 3a 46 7c 23 3b
       -0.000666368 -0.0020535872 0.0005015606 0.00249459
0000c0 d2 b9 fc 3a ad a5 29 3b dd fd 63 3a 31 f6 c0 ba
       0.0019281453 0.0025886104 0.00086971914 -0.0014721808
0000d0 8a 45 bd ba d9 ba 47 39 55 2d 19 3b a6 04 92 3a
       -0.001444028 0.00019047725 0.0023372967 0.0011140301
0000e0 fa 26 3a ba 0c 0c 13 ba d6 d2 02 3b 48 ac d0 ba
       -0.0007101145 -0.00056094 0.0019962094 -0.0015920484
0000f0 ec e4 0e 3a 98 3d c4 ba 5c fb 32 ba 27 c9 7d ba
       0.0005450982 -0.001497197 -0.00068276166 -0.0009681158
000100 93 5e 08 3b 8d cb 40 bb 1e 37 2e 3b a8 23 06 bb
       0.0020808324 -0.00294182 0.0026583145 -0.002046803
000110 eb e5 3f 3b 9e 24 60 ba 44 1f cb b9 f8 09 8e 39
       0.002928133 -0.0008550378 -0.00038742472 0.00027091778
000120 45 1a 04 3b f0 07 da 3a 35 7f 2c ba 84 c2 af 3a
       0.002015726 0.0016634446 -0.00065802346 0.0013409411
000130 1f 63 f6 39 03 8e e3 3a 1c 1f ad ba 11 41 8f 3a
       0.00046994627 0.0017361048 -0.0013208124 0.0010929425
000140 ee 30 cb 39 09 09 3d bb 9c cb 42 ba c4 1e dc ba
       0.00038755633 -0.0028844497 -0.0007430853 -0.0016793837
000150 e4 d9 32 3b 5a 50 79 3a 40 d1 33 bb fa e6 55 3a
       0.0027290517 0.00095105695 -0.0027437955 0.00081597234
000160 09 b6 2c 3b 7b 35 02 bb 15 c8 f5 39 52 54 ca 39
       0.0026353619 -0.0019868303 0.00046879114 0.00038591266
000170 4e 78 21 bb 81 81 76 ba d8 fb 28 3b 05 67 00 bb
       -0.0024638358 -0.0009403453 0.0025784876 -0.0019592654
000180 fc 77 e2 b9 27 b3 5a ba 8f 88 93 b9 12 4d b0 3a
       -0.00043195474 -0.0008342736 -0.0002813977 0.0013450703
000190 71 ba 88 3a f3 9d f5 3a a8 16 28 b8 a5 36 ca 3a
       0.001043154 0.0018739089 -4.007542e-05 0.0015427662
0001a0 44 53 be b9 f4 4d fc 3a 79 04 3e ba a4 e1 21 3a
       -0.00036301662 0.0019249306 -0.0007248591 0.00061752857
0001b0 f9 9c 3a 3b d4 84 87 3a 69 67 d4 b9 da b7 d8 3a
       0.002847491 0.0010339268 -0.00040512838 0.0016534284
0001c0 0f 07 03 3b b7 8c b6 3a f8 b5 49 3a fe 99 43 3b
       0.001999322 0.0013927434 0.0007694657 0.0029846425
0001d0 56 ae 37 bb c2 66 ed ba 88 16 38 3b b6 f9 e3 3a
       -0.0028027496 -0.0018112289 0.0028089602 0.0017393145
0001e0 d9 24 e8 b9 81 35 32 bb 5c 79 05 bb 89 24 ac ba
       -0.00044277942 -0.0027192535 -0.0020366525 -0.0013133447
0001f0 26 bb d9 3a ba 47 36 3b 73 0e 81 39 9b 9d 02 3b
       0.0016611561 0.0027813748 0.00024615563 0.0019930366
000200 39 f2 a7 3a 2e 5d 96 3a 47 14 e8 ba fa f3 34 3b
       0.0012813277 0.0011471862 -0.0017706238 0.0027611242
000210 e6 6a e7 b9 00 18 79 ba 77 12 35 bb ef 62 19 3b
       -0.000441394 -0.00095021725 -0.0027629414 0.0023404916
000220 29 1a 64 ba ce c7 34 3b 40 5f 78 ba 37 e8 e6 3a
       -0.0008701408 0.0027584913 -0.00094746426 0.0017616813
000230 86 66 1d bb fa cd a0 3a 19 af c8 ba ca 47 01 3b
       -0.0024017408 0.0012268417 -0.0015310972 0.0019726628
000240 15 07 1f ba fa ea 2a 3a cb 9c 16 3a e8 e7 fb b9
       -0.0006066424 0.00065199996 0.000574541 -0.00048047234
000250 bf c1 a7 ba 95 93 10 bb 15 aa b6 3a 3e 9b 15 bb
       -0.001279883 -0.0022060622 0.0013936186 -0.0022828127
000260 c5 3a e0 ba 59 be 26 bb 53 72 cf 3a 89 a7 ec 39
       -0.0017107358 -0.0025443046 0.0015826918 0.0004513825
000270 0a 67 1a 38 f4 fd 35 36 0c 42 93 3a 21 29 2d 3a
       3.6812424e-05 2.7118922e-06 0.0011234893 0.0006605555
000280 7d 34 ba ba 8b 4e 00 3b 2e a6 35 bb 03 d8 b7 ba
       -0.0014206317 0.0019578065 -0.002771746 -0.0014026169
000290 c5 4a 0e ba 43 09 1d 3b 2a f6 df 3a 62 27 00 3b
       -0.00054280116 0.002396182 0.0017086912 0.0019554724
0002a0 23 c9 3f 3b 79 0e a5 ba 94 03 37 3b 58 01 36 bb
       0.0029264174 -0.0012592814 0.0027925717 -0.0027771797
0002b0 28 8f 2e 3b be b8 2f 3b fa 63 dd 3a e9 c7 1a bb
       0.002663562 0.0026812996 0.0016890757 -0.002361769
0002c0 38 4e d1 3a 62 5e ce 39 c9 35 1c ba a5 a5 b8 3a
       0.0015968746 0.00039361703 -0.00059589423 0.0014087452
0002d0 c3 81 aa b9 fc d5 7f ba c3 40 8b ba 2d b0 95 b9
       -0.00032521607 -0.0009759364 -0.0010624159 -0.00028550756
0002e0 f2 8e 10 ba d3 05 e0 38 bd ff dd ba 95 72 98 ba
       -0.00055144646 0.00010682237 -0.0016937178 -0.0011630828
0002f0 ea 8d d8 3a ee ae 5d ba 93 85 a2 ba bc 80 0a bb
       0.0016521786 -0.00084565475 -0.0012399427 -0.002113386
000300 56 d8 1f 3b c4 ab f1 3a 2d e4 44 3a 2b 17 2b 3b
       0.002439042 0.0018438031 0.00075108075 0.0026106338
000310 58 dd f2 3a f4 89 a2 ba 48 9f 39 ba 82 ca e8 ba
       0.00185291 -0.0012400732 -0.00070809247 -0.0017760547
000320 66 a3 9a 3a b2 16 09 ba 25 11 33 bb 07 42 ec 3a
       0.0011797964 -0.0005229517 -0.0027323451 0.0018025049
000330 7d 57 20 b9 28 17 08 3b fa 28 02 3a 04 0c a1 b9
       -0.00015291381 0.0020765755 0.00049652124 -0.00030717265
000340 44 82 0f 3b 03 3d 39 3b 90 91 1e 3b 09 44 44 3b
       0.0021897713 0.0028265126 0.0024195649 0.0029947779
000350 ea fa 0f b9 85 bf d5 39 2b 0f c3 ba 2e dc 09 bb
       -0.00013731015 0.0004076922 -0.001488184 -0.0021035778
000360 72 88 d4 ba 3c da 32 bb d9 ae bb b7 40 7e af 3a
       -0.001621498 -0.0027290722 -2.2373557e-05 0.0013389066
000370 90 a0 f6 39 8e 46 a6 3a fe fe 18 bb f5 2f c5 ba
       0.00047040405 0.0012685822 -0.0023345347 -0.00150442
000380 37 8b 8f ba a4 d1 79 3a 0d 79 fa ba 6d 4b 98 ba
       -0.0010951523 0.0009529835 -0.0019109562 -0.0011619158
000390 28 43 e9 ba a3 ff bd ba d5 ac 97 39 9e fd 3f bb
       -0.0017796503 -0.0014495741 0.00028929734 -0.0029295455
0003a0 21 d6 04 bb e3 54 99 3a 69 e9 1a 3b b8 e6 d3 38
       -0.0020269232 0.0011698272 0.0023637658 0.00010104239
0003b0 ae 17 72 b8 62 11 13 bb ae 43 24 bb cd 59 83 ba
       -5.771935e-05 -0.002244078 -0.0025064754 -0.001002127
0003c0 55 80 15 bb 1e 07 8d 3a 71 dc 0b bb 33 0d 33 3b
       -0.0022812088 0.0010759567 -0.002134111 0.00273211
0003d0 cf 1b dd 3a 0a 39 b9 39 b4 7f 37 3b 50 2d f0 39
       0.001686925 0.00035328447 0.00279997 0.00045810128
0003e0 1d e6 43 3b c5 7d 12 3b 8b b2 91 b9 60 f1 eb 3a
       0.0029891797 0.0022352797 -0.0002778958 0.0018001013
0003f0 a5 69 21 bb 67 13 5c ba a9 47 01 bb 90 6f 8d ba
       -0.002462962 -0.0008395225 -0.001972655 -0.0010790695

fc3.bias f4 [4]
000000 5d 66 43 bd a0 c6 17 3d 98 28 11 bd ca a6 fc 3c
       -0.047705043 0.037054658 -0.035439104 0.03084125

bn1.weight f4 [600]
000000 00 00 80 3f 00 00 80 3f 00 00 80 3f 00 00 80 3f
       1.0 1.0 1.0 1.0
000010 00 00 80 3f 00 00 80 3f 00 00 80 3f 00 00 80 3f
       1.0 1.0 1.0 1.0
000020 00 00 80 3f 00 00 80 3f 00 00 80 3f 00 00 80 3f
       1.0 1.0 1.0 1.0
000030 00 00 80 3f 00 00 80 3f 00 00 80 3f 00 00 80 3f
       1.0 1.0 1.0 1.0
000040 00 00 80 3f 00 00 80 3f 00 00 80 3f 00 00 80 3f
       1.0 1.0 1.0 1.0
000050 00 00 80 3f 00 00 80 3f 00 00 80 3f 00 00 80 3f
       1.0 1.0 1.0 1.0
000060 00 00 80 3f 00 00 80 3f 00 00 80 3f 00 00 80 3f
       1.0 1.0 1.0 1.0
000070 00 00 80 3f 00 00 80 3f 00 00 80 3f 00 00 80 3f
       1.0 1.0 1.0 1.0
000080 00 00 80 3f 00 00 80 3f 00 00 80 3f 00 00 80 3f
       1.0 1.0 1.0 1.0
000090 00 00 80 3f 00 00 80 3f 00 00 80 3f 00 00 80 3f
       1.0 1.0 1.0 1.0
0000a0 00 00 80 3f 00 00 80 3f 00 00 80 3f 00 00 80 3f
       1.0 1.0 1.0 1.0
0000b0 00 00 80 3f 00 00 80 3f 00 00 80 3f 00 00 80 3f
       1.0 1.0 1.0 1.0
0000c0 00 00 80 3f 00 00 80 3f 00 00 80 3f 00 00 80 3f
       1.0 1.0 1.0 1.0
0000d0 00 00 80 3f 00 00 80 3f 00 00 80 3f 00 00 80 3f
       1.0 1.0 1.0 1.0
0000e0 00 00 80 3f 00 00 80 3f 00 00 80 3f 00 00 80 3f
       1.0 1.0 1.0 1.0
0000f0 00 00 80 3f 00 00 80 3f 00 00 80 3f 00 00 80 3f
       1.0 1.0 1.0 1.0
000100 00 00 80 3f 00 00 80 3f 00 00 80 3f 00 00 80 3f
       1.0 1.0 1.0 1.0
000110 00 00 80 3f 00 00 80 3f 00 00 80 3f 00 00 80 3f
       1.0 1.0 1.0 1.0
000120 00 00 80 3f 00 00 80 3f 00 00 80 3f 00 00 80 3f
       1.0 1.0 1.0 1.0
000130 00 00 80 3f 00 00 80 3f 00 00 80 3f 00 00 80 3f
       1.0 1.0 1.0 1.0
000140 00 00 80 3f 00 00 80 3f 00 00 80 3f 00 00 80 3f
       1.0 1.0 1.0 1.0
000150 00 00 80 3f 00 00 80 3f 00 00 80 3f 00 00 80 3f
       1.0 1.0 1.0 1.0
000160 00 00 80 3f 00 00 80 3f 00 00 80 3f 00 00 80 3f
       1.0 1.0 1.0 1.0
000170 00 00 80 3f 00 00 80 3f 00 00 80 3f 00 00 80 3f
       1.0 1.0 1.0 1.0
000180 00 00 80 3f 00 00 80 3f 00 00 80 3f 00 00 80 3f
       1.0 1.0 1.0 1.0
000190 00 00 80 3f 00 00 80 3f 00 00 80 3f 00 00 80 3f
       1.0 1.0 1.0 1.0
0001a0 00 00 80 3f 00 00 80 3f 00 00 80 3f 00 00 80 3f
       1.0 1.0 1.0 1.0
0001b0 00 00 80 3f 00 00 80 3f 00 00 80 3f 00 00 80 3f
       1.0 1.0 1.0 1.0
0001c0 00 00 80 3f 00 00 80 3f 00 00 80 3f 00 00 80 3f
       1.0 1.0 1.0 1.0
0001d0 00 00 80 3f 00 00 80 3f 00 00 80 3f 00 00 80 3f
       1.0 1.0 1.0 1.0
0001e0 00 00 80 3f 00 00 80 3f 00 00 80 3f 00 00 80 3f
       1.0 1.0 1.0 1.0
0001f0 00 00 80 3f 00 00 80 3f 00 00 80 3f 00 00 80 3f
       1.0 1.0 1.0 1.0
000200 00 00 80 3f 00 00 80 3f 00 00 80 3f 00 00 80 3f
       1.0 1.0 1.0 1.0
000210 00 00 80 3f 00 00 80 3f 00 00 80 3f 00 00 80 3f
       1.0 1.0 1.0 1.0
000220 00 00 80 3f 00 00 80 3f 00 00 80 3f 00 00 80 3f
       1.0 1.0 1.0 1.0
000230 00 00 80 3f 00 00 80 3f 00 00 80 3f 00 00 80 3f
       1.0 1.0 1.0 1.0
000240 00 00 80 3f 00 00 80 3f 00 00 80 3f 00 00 80 3f
       1.0 1.0 1.0 1.0
000250 00 00 80 3f 00 00 80 3f 00 00 80 3f 00 00 80 3f
       1.0 1.0 1.0 1.0
000260 00 00 80 3f 00 00 80 3f 00 00 80 3f 00 00 80 3f
       1.0 1.0 1.0 1.0
000270 00 00 80 3f 00 00 80 3f 00 00 80 3f 00 00 80 3f
       1.0 1.0 1.0 1.0
000280 00 00 80 3f 00 00 80 3f 00 00 80 3f 00 00 80 3f
       1.0 1.0 1.0 1.0
000290 00 00 80 3f 00 00 80 3f 00 00 80 3f 00 00 80 3f
       1.0 1.0 1.0 1.0
0002a0 00 00 80 3f 00 00 80 3f 00 00 80 3f 00 00 80 3f
       1.0 1.0 1.0 1.0
0002b0 00 00 80 3f 00 00 80 3f 00 00 80 3f 00 00 80 3f
       1.0 1.0 1.0 1.0
0002c0 00 00 80 3f 00 00 80 3f 00 00 80 3f 00 00 80 3f
       1.0 1.0 1.0 1.0
0002d0 00 00 80 3f 00 00 80 3f 00 00 80 3f 00 00 80 3f
       1.0 1.0 1.0 1.0
0002e0 00 00 80 3f 00 00 80 3f 00 00 80 3f 00 00 80 3f
       1.0 1.0 1.0 1.0
0002f0 00 00 80 3f 00 00 80 3f 00 00 80 3f 00 00 80 3f
       1.0 1.0 1.0 1.0
000300 00 00 80 3f 00 00 80 3f 00 00 80 3f 00 00 80 3f
       1.0 1.0 1.0 1.0
000310 00 00 80 3f 00 00 80 3f 00 00 80 3f 00 00 80 3f
       1.0 1.0 1.0 1.0
000320 00 00 80 3f 00 00 80 3f 00 00 80 3f 00 00 80 3f
       1.0 1.0 1.0 1.0
000330 00 00 80 3f 00 00 80 3f 00 00 80 3f 00 00 80 3f
       1.0 1.0 1.0 1.0
000340 00 00 80 3f 00 00 80 3f 00 00 80 3f 00 00 80 3f
       1.0 1.0 1.0 1.0
000350 00 00 80 3f 00 00 80 3f 00 00 80 3f 00 00 80 3f
       1.0 1.0 1.0 1.0
000360 00 00 80 3f 00 00 80 3f 00 00 80 3f 00 00 80 3f
       1.0 1.0 1.0 1.0
000370 00 00 80 3f 00 00 80 3f 00 00 80 3f 00 00 80 3f
       1.0 1.0 1.0 1.0
000380 00 00 80 3f 00 00 80 3f 00 00 80 3f 00 00 80 3f
       1.0 1.0 1.0 1.0
000390 00 00 80 3f 00 00 80 3f 00 00 80 3f 00 00 80 3f
       1.0 1.0 1.0 1.0
0003a0 00 00 80 3f 00 00 80 3f 00 00 80 3f 00 00 80 3f
       1.0 1.0 1.0 1.0
0003b0 00 00 80 3f 00 00 80 3f 00 00 80 3f 00 00 80 3f
       1.0 1.0 1.0 1.0
0003c0 00 00 80 3f 00 00 80 3f 00 00 80 3f 00 00 80 3f
       1.0 1.0 1.0 1.0
0003d0 00 00 80 3f 00 00 80 3f 00 00 80 3f 00 00 80 3f
       1.0 1.0 1.0 1.0
0003e0 00 00 80 3f 00 00 80 3f 00 00 80 3f 00 00 80 3f
       1.0 1.0 1.0 1.0
0003f0 00 00 80 3f 00 00 80 3f 00 00 80 3f 00 00 80 3f
       1.0 1.0 1.0 1.0

bn1.bias f4 [600]
000000 00 00 00 00 00 00 00 00 00 00 00 00 00 00 00 00
       0.0 0.0 0.0 0.0
000010 00 00 00 00 00 00 00 00 00 00 00 00 00 00 00 00
       0.0 0.0 0.0 0.0
000020 00 00 00 00 00 00 00 00 00 00 00 00 00 00 00 00
       0.0 0.0 0.0 0.0
000030 00 00 00 00 00 00 00 00 00 00 00 00 00 00 00 00
       0.0 0.0 0.0 0.0
000040 00 00 00 00 00 00 00 00 00 00 00 00 00 00 00 00
       0.0 0.0 0.0 0.0
000050 00 00 00 00 00 00 00 00 00 00 00 00 00 00 00 00
       0.0 0.0 0.0 0.0
000060 00 00 00 00 00 00 00 00 00 00 00 00 00 00 00 00
       0.0 0.0 0.0 0.0
000070 00 00 00 00 00 00 00 00 00 00 00 00 00 00 00 00
       0.0 0.0 0.0 0.0
000080 00 00 00 00 00 00 00 00 00 00 00 00 00 00 00 00
       0.0 0.0 0.0 0.0
000090 00 00 00 00 00 00 00 00 00 00 00 00 00 00 00 00
       0.0 0.0 0.0 0.0
0000a0 00 00 00 00 00 00 00 00 00 00 00 00 00 00 00 00
       0.0 0.0 0.0 0.0
0000b0 00 00 00 00 00 00 00 00 00 00 00 00 00 00 00 00
       0.0 0.0 0.0 0.0
0000c0 00 00 00 00 00 00 00 00 00 00 00 00 00 00 00 00
       0.0 0.0 0.0 0.0
0000d0 00 00 00 00 00 00 00 00 00 00 00 00 00 00 00 00
       0.0 0.0 0.0 0.0
0000e0 00 00 00 00 00 00 00 00 00 00 00 00 00 00 00 00
       0.0 0.0 0.0 0.0
0000f0 00 00 00 00 00 00 00 00 00 00 00 00 00 00 00 00
       0.0 0.0 0.0 0.0
000100 00 00 00 00 00 00 00 00 00 00 00 00 00 00 00 00
       0.0 0.0 0.0 0.0
000110 00 00 00 00 00 00 00 00 00 00 00 00 00 00 00 00
       0.0 0.0 0.0 0.0
000120 00 00 00 00 00 00 00 00 00 00 00 00 00 00 00 00
       0.0 0.0 0.0 0.0
000130 00 00 00 00 00 00 00 00 00 00 00 00 00 00 00 00
       0.0 0.0 0.0 0.0
000140 00 00 00 00 00 00 00 00 00 00 00 00 00 00 00 00
       0.0 0.0 0.0 0.0
000150 00 00 00 00 00 00 00 00 00 00 00 00 00 00 00 00
       0.0 0.0 0.0 0.0
000160 00 00 00 00 00 00 00 00 00 00 00 00 00 00 00 00
       0.0 0.0 0.0 0.0
000170 00 00 00 00 00 00 00 00 00 00 00 00 00 00 00 00
       0.0 0.0 0.0 0.0
000180 00 00 00 00 00 00 00 00 00 00 00 00 00 00 00 00
       0.0 0.0 0.0 0.0
000190 00 00 00 00 00 00 00 00 00 00 00 00 00 00 00 00
       0.0 0.0 0.0 0.0
0001a0 00 00 00 00 00 00 00 00 00 00 00 00 00 00 00 00
       0.0 0.0 0.0 0.0
0001b0 00 00 00 00 00 00 00 00 00 00 00 00 00 00 00 00
       0.0 0.0 0.0 0.0
0001c0 00 00 00 00 00 00 00 00 00 00 00 00 00 00 00 00
       0.0 0.0 0.0 0.0
0001d0 00 00 00 00 00 00 00 00 00 00 00 00 00 00 00 00
       0.0 0.0 0.0 0.0
0001e0 00 00 00 00 00 00 00 00 00 00 00 00 00 00 00 00
       0.0 0.0 0.0 0.0
0001f0 00 00 00 00 00 00 00 00 00 00 00 00 00 00 00 00
       0.0 0.0 0.0 0.0
000200 00 00 00 00 00 00 00 00 00 00 00 00 00 00 00 00
       0.0 0.0 0.0 0.0
000210 00 00 00 00 00 00 00 00 00 00 00 00 00 00 00 00
       0.0 0.0 0.0 0.0
000220 00 00 00 00 00 00 00 00 00 00 00 00 00 00 00 00
       0.0 0.0 0.0 0.0
000230 00 00 00 00 00 00 00 00 00 00 00 00 00 00 00 00
       0.0 0.0 0.0 0.0
000240 00 00 00 00 00 00 00 00 00 00 00 00 00 00 00 00
       0.0 0.0 0.0 0.0
000250 00 00 00 00 00 00 00 00 00 00 00 00 00 00 00 00
       0.0 0.0 0.0 0.0
000260 00 00 00 00 00 00 00 00 00 00 00 00 00 00 00 00
       0.0 0.0 0.0 0.0
000270 00 00 00 00 00 00 00 00 00 00 00 00 00 00 00 00
       0.0 0.0 0.0 0.0
000280 00 00 00 00 00 00 00 00 00 00 00 00 00 00 00 00
       0.0 0.0 0.0 0.0
000290 00 00 00 00 00 00 00 00 00 00 00 00 00 00 00 00
       0.0 0.0 0.0 0.0
0002a0 00 00 00 00 00 00 00 00 00 00 00 00 00 00 00 00
       0.0 0.0 0.0 0.0
0002b0 00 00 00 00 00 00 00 00 00 00 00 00 00 00 00 00
       0.0 0.0 0.0 0.0
0002c0 00 00 00 00 00 00 00 00 00 00 00 00 00 00 00 00
       0.0 0.0 0.0 0.0
0002d0 00 00 00 00 00 00 00 00 00 00 00 00 00 00 00 00
       0.0 0.0 0.0 0.0
0002e0 00 00 00 00 00 00 00 00 00 00 00 00 00 00 00 00
       0.0 0.0 0.0 0.0
0002f0 00 00 00 00 00 00 00 00 00 00 00 00 00 00 00 00
       0.0 0.0 0.0 0.0
000300 00 00 00 00 00 00 00 00 00 00 00 00 00 00 00 00
       0.0 0.0 0.0 0.0
000310 00 00 00 00 00 00 00 00 00 00 00 00 00 00 00 00
       0.0 0.0 0.0 0.0
000320 00 00 00 00 00 00 00 00 00 00 00 00 00 00 00 00
       0.0 0.0 0.0 0.0
000330 00 00 00 00 00 00 00 00 00 00 00 00 00 00 00 00
       0.0 0.0 0.0 0.0
000340 00 00 00 00 00 00 00 00 00 00 00 00 00 00 00 00
       0.0 0.0 0.0 0.0
000350 00 00 00 00 00 00 00 00 00 00 00 00 00 00 00 00
       0.0 0.0 0.0 0.0
000360 00 00 00 00 00 00 00 00 00 00 00 00 00 00 00 00
       0.0 0.0 0.0 0.0
000370 00 00 00 00 00 00 00 00 00 00 00 00 00 00 00 00
       0.0 0.0 0.0 0.0
000380 00 00 00 00 00 00 00 00 00 00 00 00 00 00 00 00
       0.0 0.0 0.0 0.0
000390 00 00 00 00 00 00 00 00 00 00 00 00 00 00 00 00
       0.0 0.0 0.0 0.0
0003a0 00 00 00 00 00 00 00 00 00 00 00 00 00 00 00 00
       0.0 0.0 0.0 0.0
0003b0 00 00 00 00 00 00 00 00 00 00 00 00 00 00 00 00
       0.0 0.0 0.0 0.0
0003c0 00 00 00 00 00 00 00 00 00 00 00 00 00 00 00 00
       0.0 0.0 0.0 0.0
0003d0 00 00 00 00 00 00 00 00 00 00 00 00 00 00 00 00
       0.0 0.0 0.0 0.0
0003e0 00 00 00 00 00 00 00 00 00 00 00 00 00 00 00 00
       0.0 0.0 0.0 0.0
0003f0 00 00 00 00 00 00 00 00 00 00 00 00 00 00 00 00
       0.0 0.0 0.0 0.0
