Packs/deep-rl/RL7 - DDPG/checkpoint_critic.pth (torch, 802084 bytes, 11 tensors)

fcs1.weight f4 [600, 24]
00000000: 414f c8ba 1c42 e03d 1509 2cbe 0ad4 19be
00000010: 2903 a1bd 5134 603d 7486 84bb 74bb 253e
00000020: 7f65 94bc 973d 5d3d 97ad 7cbd cb58 24bd
00000030: a0b0 47be aa6e 0abe 0d54 acbd 5bc6 f73b
00000040: b644 a53d 58d6 fa3d 93b4 0dbe 2a0b b6bd
00000050: 70d7 973d ff91 2d3e 6811 2cbd 1b6a 1c3e
00000060: a3c3 06bd d5f0 b03c f643 3d3e 92e7 41be
00000070: 8796 03be 69ab 53bd 54f4 a2bd 9d98 343e
00000080: 0b7c 07be c070 c0bd 3208 12be 4ec3 43be
00000090: d007 f4bd 06ad 333e 388a ba3d 959d ca3d
000000a0: bae2 2f3c 4f53 d6bd 3d74 0d3d ee29 43be
000000b0: 7708 17be f083 d7bd 71e1 033e 021c f53d
000000c0: c566 b9bd 8158 f1bb d8ae 053e fccb 4f3e
000000d0: 45ea a53d 77e6 e13c ac25 0c3e 8925 f6bd
000000e0: 04cd 1b3d 8a0e 22be fcde 10be b1f4 d7bd
000000f0: 9827 bd3d 251f a83d 79a1 f7bd e996 7c3d
00000100: e67e e53d 0d0f d3bc ed62 ff3b 01ba 413d
00000110: 4dac 013e e9b3 483e 0214 21be 8933 99bd
00000120: dc4b a43d 9d2f 2d3e bae4 353e d76e 383e
00000130: 0365 263d 4dc3 35be 17d4 993c 18c4 02be
00000140: cbcc 42be 2ab7 393e cbee 1e3e a581 50be
00000150: 407e 1c3d 21d9 0cbd 9e96 09bd 125d bfbd
00000160: 24c3 a03d 3b9c f7bd 8c40 993d cd68 d33d
00000170: 3ba2 153e e94f 9c3d a8e0 4ebe b897 07be
00000180: 9ebc d03d ccfe 2e3d 3c0e 23be 1db8 f0bd
00000190: 6ca3 443e f1d7 0c3e 5847 b6bd 886e 52bd
000001a0: 731d 47be dd72 70bb 2068 1dbe 3d3b 21be
000001b0: 0346 38bc 0012 fb3c de33 abbd 2d0f f83d
000001c0: c365 febd 4da9 3d3e 583e 0f3e 0144 30be
000001d0: 1f17 50bd 21e8 163c 3ff9 f33c b54c 463d
000001e0: 9d0d a43d 0d54 483c 0ffa cbbd 9dd0 c53d
000001f0: 5581 48be 60c7 f7bd 864c 51bd cca2 cbbd
00000200: 1d3f 92bd e451 2bbe 7cd9 31bd 5db8 323d
00000210: e22b 08be 85a1 2bbc 1fa1 153e abe6 abbc
00000220: 19e5 b93b f041 90bc a535 293d b8e7 043e
00000230: 12ff 453e cbbd 043e 0b73 463e d1de 71bc
00000240: 1dc5 3bbe ac2f c6bd 2f53 0e3e 4570 adba
00000250: d3c9 cfbd 482d 20be 5f9d 43be d06a 30be
00000260: 1d97 29bd 5342 e53d 5303 e23d ad96 49be
00000270: 8762 023e 0590 23be 31c2 30bd 9e81 a9bd
00000280: 500b 21bd 2229 24bd 2091 3bbe 7e7a 34be
00000290: d2d4 02bd 0000 2d3b 6ee8 bdbd 4a7a 9d3d
000002a0: 0e22 3cbe cab3 61bc aad1 373e 8984 aabd
000002b0: a0bf 3c3e a465 973d 9da2 3cbe 963f 043e
000002c0: fef5 c0bc 649e babd 6325 273e 1de9 28be
000002d0: 076f b33c 360d 2fbd 1d44 153e 0264 693d
000002e0: 9bdf c83d 04a3 933d 210f 49bd b7d5 2fbd
000002f0: 8840 2cbe 1384 e23d b5f5 253e d104 0f3e
00000300: bd70 13be 9628 153c f858 13be bb20 e6bd
00000310: 0d99 f3bd 80dd 8e3d 891e f9bd fced 91bb
00000320: feb0 0c3c bbbd 063e 3901 1ebe 377f 0fbe
00000330: 4fbe f2bd 624d 123e e345 96bd 044f 303e
00000340: 2f2b 973d fcbd d33c 212a c7ba b247 25bd
00000350: 8ecd d13c d3ea 3ebd f1fd bbba f35b d53c
00000360: bc7f 23be 761c dbbd e0c8 283e cda1 29be
00000370: 8025 70bc 16c6 4e3e 8803 973d ea60 bd3b
00000380: 3b24 35be 4417 cf3d 16e2 14be 3856 6dbd
00000390: e842 8cbd 27a1 f7bc a453 123b 6367 2c3e
000003a0: eec0 d03c 7438 3b3e 5fb9 ff3d b825 04be
000003b0: d67e bb3d f4c1 13be b32d b1bd eee9 753d
000003c0: 1b09 8a3d a5d0 1c3e 6393 86bd ef52 ab39
000003d0: 5638 d73d 0725 4abe a31e 173e 8ed8 2cbe
000003e0: 0960 383b 5626 0ebd 752c dcbd b203 dd3c
000003f0: 5bd8 2c3e fb67 74bd 0d31 f8bd 189c 9abd
-0.0015282409 0.10950109 -0.1680034 -0.15022293 -0.07861931 0.054737393 -0.0040443484 0.16184789
-0.018114803 0.054013815 -0.061688986 -0.040123742 -0.19500971 -0.13518777 -0.08414469 0.0075614876
0.08069746 0.12247914 -0.13838415 -0.08888848 0.07414138 0.16950224 -0.042008787 0.15274851
-0.032901417 0.021599213 0.18482956 -0.18935993 -0.1285039 -0.05167714 -0.07956758 0.17636342
-0.13230912 -0.09396505 -0.14260939 -0.19117472 -0.119155526 0.17546472 0.091083944 0.09893338
0.010735208 -0.104651086 0.03453468 -0.19058964 -0.14749323 -0.10523212 0.12878968 0.11968233
-0.09052805 -0.007365287 0.13054979 0.20292658 0.08101324 0.027575715 0.13686246 -0.12018878
0.038037315 -0.15825859 -0.14147562 -0.10544718 0.092360675 0.08209065 -0.12091345 0.061667357
0.112058446 -0.025764013 0.0077937753 0.047296528 0.12663384 0.1959988 -0.15730289 -0.07480533
0.080222815 0.16912694 0.17763034 0.18011032 0.040623676 -0.17750283 0.01877789 -0.12770116
-0.19023435 0.18136278 0.1552078 -0.20361955 0.03820634 -0.034386758 -0.033590905 -0.09343924
0.0784972 -0.120903455 0.074830145 0.103227235 0.14612667 0.07632429 -0.20202887 -0.1324147
0.10192226 0.042723462 -0.15923399 -0.11753867 0.19202965 0.1375425 -0.089003265 -0.051374942
-0.19444828 -0.0036689558 -0.15371752 -0.15745254 -0.011247161 0.030648232 -0.08359502 0.121122696
-0.12421753 0.18521614 0.13988626 -0.17213441 -0.0508033 0.009210617 0.029781936 0.048412997
0.08010409 0.0122270705 -0.09959804 0.096589305 -0.19580586 -0.12098575 -0.05109837 -0.099431604
-0.07140944 -0.16730458 -0.0434203 0.043632854 -0.1329799 -0.010475521 0.14612244 -0.020984014
0.0056730625 -0.017609566 0.041310925 0.12979019 0.19335583 0.12963025 0.19379823 -0.014762596
-0.18336911 -0.096770614 0.1389892 -0.0013232311 -0.10145917 -0.15642273 -0.19103001 -0.17228246
-0.04140388 0.11194291 0.1103579 -0.19686384 0.12732898 -0.15972908 -0.043153945 -0.08276676
-0.03931743 -0.04007829 -0.1831708 -0.17624852 -0.031941243 0.0026397705 -0.09272848 0.076893404
-0.18372366 -0.013775775 0.17951074 -0.0832606 0.18432474 0.07392433 -0.18421407 0.12914881
-0.023554798 -0.09112242 0.16322856 -0.16495176 0.021903528 -0.04273721 0.14576764 0.05698014
0.09808274 0.07208827 -0.049086694 -0.042928424 -0.16821492 0.110603474 0.16207011 0.13966681
-0.14398475 0.009103915 -0.14389408 -0.112367116 -0.118944265 0.069758415 -0.12164027 -0.004453419
0.00858712 0.13158314 -0.15430154 -0.14013372 -0.11852705 0.14287332 -0.073375486 0.17217642
0.073812835 0.025847428 -0.001519505 -0.040351577 0.025610711 -0.046610665 -0.0014342648 0.026044821
-0.15966696 -0.10698788 0.16482878 -0.16565628 -0.014657378 0.20192751 0.073737204 0.0057793753
-0.17689602 0.101118594 -0.1453937 -0.057943553 -0.06848699 -0.03022821 0.0022327686 0.16836314
0.025482621 0.18283254 0.124865286 -0.12905014 0.091550514 -0.14429456 -0.086512946 0.060037546
0.06740018 0.15313967 -0.065710805 0.00032677452 0.10508792 -0.19740687 0.1475778 -0.16879484
0.0028133413 -0.03470453 -0.10750667 0.026979301 0.16879408 -0.059669476 -0.12118731 -0.07549304

fcs1.bias f4 [600]
00000000: 8621 41bc bbf8 b9bd 3b5e f6bd 8f05 35be
00000010: 7d52 413d ecf0 07bd 9cca f9bd 8fec 373e
00000020: 3761 0f3e 235d 343d 8f1d 603d 86f9 d9bc
00000030: 0e39 1a3e 1ebe 49be 6d15 febd d4f5 133e
00000040: 0e42 143e 11bb 0dbc 8c22 77bd 0e3d c13d
00000050: 442e 123e a622 9bbd f32c d13d 0094 c93d
00000060: 4bdc ba3c e3ee fbbd 356c 133d a85d 04bd
00000070: 2cbc 663d 3602 18be 6fad 9e3d c5c2 373e
00000080: 7a76 cbbd eaac 183e a8ec b63d b6b0 f0bc
00000090: 66cb fabd 19d4 d63d 8861 1cbe 2900 ef3d
000000a0: f330 29be df7b ddbd 010d a83c 8dad d43d
000000b0: 0a38 41be d025 653d 2a87 74bb 374e f3bd
000000c0: 935b 5bbd 0249 243e f967 15be 39c3 bfbd
000000d0: c67d 193d b992 2abe be80 ba3c 0415 5e3d
000000e0: d9fe 853d 1414 a03d 0f97 373e fd93 9b3c
000000f0: a85f 3e3e 45c1 bfbd 6915 be3c 6daf 04be
00000100: b728 4cbe 38b9 db3c 4af9 5abc 32aa ddbd
00000110: ee59 c0bd 4ad0 1ebe 0851 263d cfc3 143e
00000120: 686f bdbd 71bc 353e 1216 25be 15c0 29be
00000130: 6a39 4e3e a475 883d 89df e2bd 806c d3bd
00000140: 4b75 b7bb 1a39 27be 74a2 f33d 85a4 82bd
00000150: 18f3 3d3e 9fa4 183e a0a0 203e 2a1d 3ebe
00000160: 75ec d93d ef43 00be 0272 c7bd 5f08 013e
00000170: 9da0 37be 60b3 88bd 2674 b63d e7c3 d0bd
00000180: 1f96 393e b3e3 0c3e a581 12be 43bb 1a3d
00000190: 88a2 4abe 6d9b f33d 2a1e 50bd abe9 533d
000001a0: fe6a 9dbd 6afa 1e3e 0532 e13c 9bfe 19be
000001b0: 585d 4bbe e36d b1bd cfac 95bc a520 60bd
000001c0: 78c9 0abd 57ad d7bd 6ffe 94bb 8ecf bc3d
000001d0: c5df c0bd 90f4 2fbd e9c0 bbbc 520d 193e
000001e0: d660 35bc b5fa 83bd b6ff 003e 2a1e 223d
000001f0: 9578 ab3d 9c88 c5bd 83f2 adbd 3d11 cd3d
00000200: bb60 f13d ff39 843d b110 753d 62f8 c43a
00000210: dfc1 29be 4543 fc3c 0325 443d 3690 ea3d
00000220: 5675 df3c 9240 4f3e e668 bebc 440a 013e
00000230: e5ed 38be 2632 fbbc abe1 06be 56c0 8039
00000240: 0e35 3abe cefd c4bd 7235 253e 6ef5 aa3d
00000250: 1ea1 1e3e 5939 ad3d 86d9 fe3d ec18 e2bd
00000260: a324 983d ad9c 45be e5dc 18be 6887 43be
00000270: 5d00 f83d dc13 823d 4955 02be 7338 7c3c
00000280: 0194 363e a6f9 ebbd 71b1 0fbe 7910 21be
00000290: 4ffb e2bc 7761 3a3e 2b20 273d bf22 9dbc
000002a0: 2325 04bd df0a 63bd d37a b4bd 7c1a 443e
000002b0: ce2d a2bd 3a65 94bd 0f59 8fbd f8db 363e
000002c0: c0c2 febd b84f 4d3e 07ef 093b a2e6 aebd
000002d0: 24c9 013e e211 2e3e 4a65 82bd d630 ee3d
000002e0: 701e f7bd e2ba b0bd 5d75 093e 767f 403e
000002f0: fc66 30be 747d 07be 95e8 18be 0079 90bc
00000300: bcc8 b5bc 9eee 043e 71d6 4e3d 46e0 1ebe
00000310: 9aa3 6ebc f387 f6bd f931 a93c af86 843d
00000320: 6515 3fbe afd0 503e 2c46 de3d cd54 4fbe
00000330: 37c8 b9bd 1047 383e 2b84 5c3c 2c66 24be
00000340: 035b c9bd e5fb 3cbe 29bc 7d3d 4558 d2bd
00000350: d880 453e e2aa 6b3d 0a46 dbbd 4c0b 173e
00000360: 5068 22bd 3b33 0bbe c8c9 29be bd93 bfbd
00000370: be7f ae3d 30fa 3d3d e3ec 7fbd b71d 91bd
00000380: f9ff 52bd 4e40 0dbe 4359 413e 9598 39be
00000390: cdbe c1bc 5945 e53c f862 6f3a 9228 12bc
000003a0: 8ed7 25be ac65 b5bd 865e e8bd 2b72 3e3e
000003b0: 3500 7fbd d712 16be d0cb 11be 44ef 17be
000003c0: 80df 17bd a93e b0bd c6b2 17be 5b67 90bd
000003d0: 8d13 273e 00d7 39be b067 82bc d982 433e
000003e0: 2b36 053e 97cb 483d e208 b03d 9d41 92bd
000003f0: 4bf7 21be b27c 00be 9bbc f3bd 51b5 183e
-0.011787778 -0.09080645 -0.12029692 -0.17677902 0.047197808 -0.033188745 -0.12196848 0.17961334
0.14001928 0.044034135 0.05471569 -0.02660824 0.15060827 -0.1970143 -0.124064304 0.14449245
0.14478323 -0.008650557 -0.06033568 0.094354734 0.14275461 -0.07574968 0.102136515 0.09842682
0.022810122 -0.123014234 0.035991866 -0.03231588 0.0563318 -0.14844593 0.077479236 0.17945392
-0.09934707 0.14909711 0.08931857 -0.029381137 -0.122458264 0.10489673 -0.1527158 0.116699524
-0.16522579 -0.10814642 0.020514013 0.10384665 -0.18869033 0.055944264 -0.003731201 -0.11880153
-0.05355413 0.16043475 -0.14590444 -0.09363408 0.037473463 -0.16657533 0.022766467 0.05421926
0.06542749 0.078163296 0.17928718 0.018991465 0.18591177 -0.09363035 0.023203569 -0.12957545
-0.19937406 0.026821718 -0.013365099 -0.10823478 -0.09392153 -0.15509143 0.04060462 0.1452782
-0.09249765 0.17747666 -0.161217 -0.1657718 0.20139089 0.06663063 -0.11077792 -0.10323429
-0.005598699 -0.16330376 0.1189622 -0.06379036 0.18549764 0.14906548 0.15686274 -0.18565813
0.10640804 -0.12525915 -0.09738542 0.1260085 -0.17932363 -0.06674838 0.08908872 -0.101936154
0.18123673 0.13758735 -0.14307268 0.037776243 -0.19788563 0.118948795 -0.050810017 0.051736515
-0.07686423 0.15525213 0.027489671 -0.1503853 -0.19859827 -0.08663537 -0.018270878 -0.054718632
-0.03388354 -0.10531109 -0.0045469324 0.092192754 -0.09417681 -0.042957842 -0.022919135 0.14946488
-0.011070451 -0.06444303 0.12597546 0.039579548 0.083726086 -0.09645197 -0.08493521 0.100130536
0.11786028 0.064563744 0.05983037 0.0015027637 -0.16577862 0.030793795 0.04788686 0.11453287
0.02727763 0.20239475 -0.023243379 0.12601572 -0.180595 -0.030663561 -0.13172023 0.00024557364
-0.18184301 -0.09618722 0.16133669 0.08347593 0.15491149 0.08458204 0.12443833 -0.1103991
0.07428863 -0.19298048 -0.14928015 -0.19094622 0.12109444 0.06351444 -0.12727846 0.015394318
0.17829897 -0.11522226 -0.14032532 -0.1572894 -0.027707724 0.18201242 0.040802162 -0.019181607
-0.03226198 -0.05543029 -0.08812489 0.19150728 -0.07918893 -0.0724587 -0.069994085 0.17857349
-0.12439489 0.20049942 0.0021047012 -0.085400835 0.12674385 0.16999009 -0.063669756 0.116304085
-0.12066352 -0.08629395 0.13423677 0.18798622 -0.17226785 -0.1323145 -0.14932473 -0.017635822
-0.022190444 0.1298165 0.050497476 -0.15515241 -0.014565373 -0.12037649 0.020653712 0.06471001
-0.18660505 0.20392106 0.10853228 -0.20247193 -0.09071391 0.17995858 0.013459246 -0.160546
-0.09831812 -0.18455465 0.06194702 -0.10270742 0.19287431 0.057536013 -0.10706718 0.14750403
-0.03965026 -0.13593762 -0.1658088 -0.09354351 0.08520459 0.046381176 -0.062481772 -0.07085746
-0.051513646 -0.13794062 0.18881707 -0.18124612 -0.023650551 0.02798717 0.0009131874 -0.0089208055
-0.16195509 -0.08857283 -0.11346154 0.18598239 -0.062256057 -0.14655624 -0.14237905 -0.14837366
-0.03707838 -0.086057015 -0.1481429 -0.070509635 0.16316052 -0.18148422 -0.015918583 0.19092883
0.13008945 0.049022283 0.08595444 -0.07141421 -0.15816991 -0.12547567 -0.11901208 0.14912917

fcs2.weight f4 [300, 600]
00000000: 56a7 99ba a9c6 803a d9f2 c839 bd5d c2b9
00000010: 4c76 cf39 37b7 99b9 9b62 31ba cc44 9fba
00000020: caab ad3a d3cb 48b9 87fa 9aba 9aaf 6c3a
00000030: ea09 abba 2519 7b3a 4ae2 5a3a 6465 e639
00000040: 05a9 493a 7064 6bba ad1f a9ba 3953 e0b9
00000050: bf0f fc39 35f6 45b8 76a6 29ba f4d5 b3ba
00000060: 7a17 243a 39e6 2a39 8307 07ba baba 113a
00000070: d0c7 aeba 69c3 b8ba 3403 163a aa1b 00ba
00000080: fc61 453a 09ec 943a 4abc 7db9 cbb3 9aba
00000090: 25f3 ccb9 199a 7e39 ea09 f339 eab2 06ba
000000a0: 4c65 2d39 3353 4eb7 2678 a83a 9a65 aaba
000000b0: 00d7 6eba 8ff7 01ba 03dc 0c3a ec0a a5ba
000000c0: 35ae 183a db7e ac3a a02e a4ba 970e bfba
000000d0: 0214 4eba 525a c1ba de1e c2ba 5352 21ba
000000e0: 436b 6c3a eeb0 9039 3c2f 5eb9 ff73 09ba
000000f0: 7204 9f3a afd0 89ba fa58 913a e423 86ba
00000100: 5876 8f3a aa74 583a e0d7 2f3a 3327 9d38
00000110: 1ccc 873a 5037 b93a 6b86 bc39 7d0b d438
00000120: 6dc5 22ba 2181 bfba 4223 90b9 22c3 6a3a
00000130: 4369 77ba b08a ef39 d3c5 6038 8d93 90b8
00000140: 9e27 1bba 90d1 9aba 08e2 2bb9 7b22 18b9
00000150: 2ee9 96ba 65c3 40ba a61b 6ab9 f835 0039
00000160: d5a0 5c39 5ebc b33a e306 bdb9 a2c4 043a
00000170: 023d c339 e4cd 35ba 38b1 5dba 8fdf b4ba
00000180: cafb 1bba 96b1 05ba 7a11 9fba 1f7c ecb9
00000190: 99dd 30ba 1e59 6f3a 1bdf b437 4852 8fba
000001a0: d8da b1ba 1d68 553a a4ab b4ba f1d2 c2ba
000001b0: 9886 b83a c4a8 17ba 43c8 99ba eeaa 993a
000001c0: 3121 253a 7334 8e39 472a acba a059 9a3a
000001d0: 5c56 9d39 2d46 8139 cc3d 9aba 772f 84ba
000001e0: dfa5 08b9 fafd 8fba e55b 373a 9638 57ba
000001f0: 9c41 7b3a 2076 a6ba 5c14 d339 2c83 833a
00000200: 3180 1a3a 60fc 853a a491 413a 2df6 f4b8
00000210: 3721 25ba 7197 913a 00bc e5b9 b14f 07ba
00000220: cf9f d739 17ca 8bb9 f2a5 8cba 48c9 99ba
00000230: ae0e 42ba 9aa9 bdba 1054 9dba 0739 9a3a
00000240: 9ca0 0dba b9e3 ab3a 67e9 9dba 62a2 c339
00000250: 73f3 b9ba 5ee2 22ba 7a00 91ba d38d df36
00000260: 35dd ad3a ee86 58b9 babb 843a 687d bfba
00000270: 2524 16ba adc1 823a bf53 38ba c649 983a
00000280: d3ed b5b9 de9c 78ba 2b9e 8dba ca1c 58ba
00000290: 104e 36b9 cdfe aab9 a659 8539 8562 a73a
000002a0: c6a8 4e3a 21d8 f738 5a5d 863a 1a41 2eba
000002b0: 3991 ba3a 5c67 b939 ffb3 9f3a f902 a3ba
000002c0: 29c0 8f38 398c 91ba 34a2 bf3a a4e7 8fba
000002d0: d0a8 17ba 702f 763a 98f1 3bba b068 a239
000002e0: d720 b13a 9462 9dba 98bd 89b9 1e96 c2ba
000002f0: ed59 ac3a f695 14ba e8b2 fab9 69b9 95ba
00000300: 98fc dd39 9e7e 7eba 96a3 3ab7 7f66 06b9
00000310: ea7f b43a 8338 5439 65fb b43a 6c21 be3a
00000320: cfe8 b539 299d 8d3a 4472 9c3a 488b af39
00000330: f236 acb9 e03e a03a b013 11ba d6d1 1bba
00000340: 48dd 3a3a 9875 273a 9363 203a 2422 01ba
00000350: b2ae 6aba 3ffa 383a a327 16ba c10e d139
00000360: 67fb ba39 4e00 9e39 07a4 4cba a8bd c0ba
00000370: ba7a 89b9 d50c 24ba b0d2 9bba 8d1c 2dba
00000380: e701 903a eeff 4eba 6216 bcba ca5f a8ba
00000390: 4079 9c3a 3d70 b5ba 98ee f737 359e 6d39
000003a0: 818f b2ba aa5a dd39 a2d1 8c3a 5ebd 5f3a
000003b0: 7fc2 1c3a e3fc a2b9 c52f 86ba 0e2e ad3a
000003c0: 07d1 b63a b476 bd39 c397 803a 0781 acba
000003d0: 261f 0bba 1843 943a b9cd 6e3a b840 783a
000003e0: dbec 1f3a 9477 9eba 5f71 8e3a 2b32 593a
000003f0: 235d 9239 524e f139 d7ae ed39 dcc7 70ba
-0.0011722844 0.000982483 0.00038327908 -0.00037072404 0.00039570255 -0.0002931894 -0.00067667075 -0.001215124
0.001325005 -0.00019149417 -0.001182393 0.0009028852 -0.0013049219 0.0009578637 0.000834976 0.0004394456
0.00076927274 -0.0008979505 -0.0012903117 -0.00042786615 0.00048076917 -4.719776e-05 -0.0006471643 -0.0013720379
0.0006259602 0.00016298228 -0.00051509606 0.00055591355 -0.0013334695 -0.0014096323 0.0005722523 -0.0004886935
0.00075295544 0.0011361848 -0.00024198103 -0.001180285 -0.0003909107 0.00024280733 0.00046355958 -0.00051383546
0.00016536302 -1.2297928e-05 0.001285319 -0.001300025 -0.0009111017 -0.00049578486 0.00053733605 -0.0012591756
0.0005824299 0.0013160364 -0.0012526102 -0.0014576492 -0.0007861258 -0.0014751649 -0.0014810225 -0.000615393
0.0009018669 0.00027597643 -0.00021189166 -0.000524342 0.0012132062 -0.0010514463 0.0011089139 -0.0010234085
0.0010945303 0.00082571304 0.0006707888 7.493645e-05 0.0010360512 0.0014130864 0.00035958303 0.000101110876
-0.00062092283 -0.0014610627 -0.0002749209 0.00089554687 -0.00094379875 0.00045688963 5.359e-05 -6.8939386e-05
-0.0005918684 -0.0011811722 -0.00016392034 -0.00014508695 -0.0011513585 -0.0007353335 -0.00022326279 0.00012227136
0.0002104075 0.0013712754 -0.0003605402 0.0005064701 0.00037238753 -0.0006935282 -0.00084568886 -0.0013799536
-0.00059503 -0.000510001 -0.0012135946 -0.00045105905 -0.0006746888 0.0009130406 2.1561564e-05 -0.0010934556
-0.0013569249 0.0008140819 -0.0013784063 -0.0014863891 0.0014078198 -0.0005785341 -0.0011732656 0.0011723915
0.00062991964 0.00027123428 -0.0013135158 0.0011775978 0.00030009716 0.00024657082 -0.0011767684 -0.0010084946
-0.00013031763 -0.0010985725 0.00069945893 -0.0008210031 0.00095846667 -0.0012699999 0.00040260225 0.0010033599
0.0005893736 0.0010222308 0.0007384068 -0.000116806805 -0.00062992 0.0011107755 -0.00043818355 -0.0005161716
0.00041127062 -0.00026662715 -0.0010730608 -0.001173296 -0.00074027 -0.0014470101 -0.0012003202 0.0011766263
-0.0005402656 0.0013114131 -0.0012047709 0.00037314283 -0.0014186933 -0.0006213541 -0.0011062764 6.6624284e-06
0.0013264777 -0.0002064963 0.0010126748 -0.0014609518 -0.0005727432 0.0009975933 -0.0007031522 0.0011618666
-0.00034700203 -0.0009483824 -0.0010804584 -0.0008244036 -0.00017385953 -0.00032614768 0.0002543453 0.001277045
0.00078834256 0.00011818135 0.001025121 -0.0006647274 0.0014233954 0.00035362958 0.001218438 -0.0012436799
6.854564e-05 -0.0011104412 0.0014620484 -0.0010979068 -0.0005785348 0.0009391224 -0.0007169484 0.00030977046
0.0013513815 -0.0012007528 -0.00026271935 -0.0014845764 0.0013149359 -0.0005668098 -0.0004781701 -0.0011423054
0.00042340602 -0.00097081985 -1.1124552e-05 -0.00012817419 0.0013771032 0.00020238948 0.0013807832 0.001450581
0.00034696466 0.0010804284 0.0011935909 0.00033482374 -0.00032847334 0.001222577 -0.00055342447 -0.0005944049
0.00071283104 0.0006388067 0.00061183533 -0.0004926047 -0.0008952423 0.00070563325 -0.0005727952 0.0003987458
0.00035663994 0.00030136335 -0.00078064244 -0.001470496 -0.00026222115 -0.00062580156 -0.0011888351 -0.00066036807
0.0010986895 -0.0007896413 -0.0014349932 -0.001284593 0.0011937991 -0.0013842654 2.9555798e-05 0.00022661018
-0.001362309 0.00042219955 0.0010743628 0.0008534993 0.000597991 -0.00031087463 -0.0010237625 0.0013212578
0.0013947793 0.0003613733 0.0009810854 -0.0013161012 -0.00053070707 0.0011311499 0.00091096346 0.0009470093
0.0006100663 -0.001209008 0.0010867527 0.00082853687 0.00027916682 0.00046025455 0.00045334428 -0.0009185055

fcs2.bias f4 [300]
00000000: 9a38 4a3c 6bc2 8dbc 2d6a 083d 30c4 dabc
00000010: 5cd5 18bd 78bf 133c a075 263d 20ff 4b39
00000020: ff49 a8bb 0422 c6bc 2fe6 a93c 32b7 14bb
00000030: 87b4 cc3c 6c8a 493b e324 70bb 00ac b73b
00000040: cf82 013d 6742 15bd 71b4 0a3d 92e9 03bd
00000050: e32e 1abd 4664 393c cfef deba 3061 1a3d
00000060: 8ee4 e4bc 2d65 b13b a2e0 1cbc c921 14bd
00000070: 4844 debc 064b abbc eb59 123d 0c2b 903c
00000080: d617 64bc a2b7 f0bc d2ff ef3c b640 90bc
00000090: c25a 25bd 312f 0fbd 82f2 f33c 6784 22bc
000000a0: 244f d5bc f7ee 1bbd dc12 c2bc 8ba2 91ba
000000b0: 2fff 6a3c 4061 723c ef88 d8b9 7db3 9c3c
000000c0: 0448 c3bc 00fb 3e3c a76f 26bb 1abf f83b
000000d0: fb2a c3bb 1e88 8c3c 27bf 12bc 0667 d9ba
000000e0: 7463 d6bc bd85 b03b 5a74 de3b 1322 1c3d
000000f0: f3cf 88bc aab8 5f3c 522d c13c 3ed2 123d
00000100: e6b2 a5bc 46bf 1f3c f40c bbbb 8cde 153d
00000110: e115 d83c 8925 0cbc f821 0a3d 3813 d93c
00000120: 8a86 ddbc fbc7 fdbc 8868 11bc 671c 153d
00000130: c8a2 97bc 8eda e2bc 4f41 05bd c03c c4bc
00000140: 9873 b13c 1562 4cba 75c7 d3bb 6beb 9bbc
00000150: 94dd 51bc 2e02 7bbc cb08 45bb cee0 cdbc
00000160: d4ad 01bd 8af0 b1bc 31d4 103d 95ff 1cbd
00000170: e3ac fe3b 4a87 00bd 65b7 b93c 64ed 87bc
00000180: 2a3c ea39 e0a4 f93c 4e40 1d3d 64fd 313c
00000190: 83e8 02bc 87ce febb 3ff1 013d af73 1cbd
000001a0: d01a e2bc cbcb f63c 98fe 553c 663d e93c
000001b0: 0b91 02bd 1b3e b63c 6bc8 08bc 2aa0 843c
000001c0: d914 edbc 3778 f6bc 085c 8ebc 02c9 f73b
000001d0: b411 afbb 1168 19bd 27e0 5b3c d9d0 08bc
000001e0: a79a 14bd d028 883c e435 debc f149 00bb
000001f0: c151 0cbd c92b efbc 5712 92bc 9f84 1ebd
00000200: 1118 28bb 3cc8 acba e181 213c aa4c 1fbd
00000210: 1cad 973b e16d cbbc be35 d2bc 7ab3 cb3c
00000220: c7ef b3bc a2c1 51bc 74d6 d43a 1512 0abd
00000230: 7172 4b3c c3c9 02bd 50b5 223d cbab 15bd
00000240: 3cd9 d3bc 3714 0f3d 3f72 9eba af15 41bc
00000250: 7298 ff3b 458e 8c3b 7b89 c9bc c117 333b
00000260: 6ccc f53c 90f2 20bc 48ae 663c a04d afbc
00000270: 2d19 993c ee12 9ebc f8c7 08bc 965b 5f39
00000280: 387d 8d3b 91d3 bfbc 2628 fbbc e771 a53c
00000290: 6297 bb3c 728b b93c aef8 453c 5d0e fd3c
000002a0: 777b 813c 5084 f7bc f129 9d3c 3eaa b73c
000002b0: baf2 013c 757c aabc 4a21 e93b 81a0 d93c
000002c0: 63a6 033d 733b 34bc 1ac9 803c d006 ce3c
000002d0: 4126 7d3c cec6 133d dcb4 223c 88ea eb3c
000002e0: c518 b93b 16c8 0b3c 47d2 313c e4d4 16bd
000002f0: c8d8 8e3c 32cd 3e3b 73ae aabb ca5b 05bd
00000300: 2ba6 fcbc 85c9 15bc 835f 51bc f3c0 74bc
00000310: 90e4 a2bb c27b 223d 783f dcbc 4a11 3fbb
00000320: 0206 ca3c 6c61 a1b7 0935 dfbc 4cca a4bc
00000330: 161f e93c aa7e 103d fc58 0a3d 9389 05bd
00000340: 281f 10bc 3f8d 11bd b75b 13bd 0044 88bc
00000350: 946a 7a3b 02ea 81bc ec98 c03b 1cc0 953b
00000360: 2269 f83c 3255 163d 75d5 4e3c f608 07bd
00000370: 48c5 873c dbca 26ba d1cc 063d 966c 62bc
00000380: a132 ce3b e417 0abd 4f29 c0bb 26a0 98bc
00000390: 3494 a8bc 5530 dc3c 3afc 073d 5d9e 86ba
000003a0: 63e8 ef3c 39eb 7c3c efcf 29bc 8727 9abb
000003b0: 1f3c d7bc 1fc6 6ebc b296 b23c 93f6 aa3c
000003c0: b9d8 103c e4c2 e8bc a6b5 663c 551f b93c
000003d0: 8816 fb3c 9e84 ff3c 9f42 123d b222 23bd
000003e0: b241 183d 2cd5 afbb 789f 0d3c b130 18bd
000003f0: 16c0 8b3c 17a0 5cbb 6028 ddbc 9698 17bd
0.012342596 -0.01730462 0.033304382 -0.026704878 -0.03731285 0.009017818 0.04063952 0.0001945463
-0.005135774 -0.024186142 0.020739643 -0.00226922 0.024988426 0.0030752672 -0.003664308 0.005605221
0.03161889 -0.03644028 0.03386349 -0.032205172 -0.03764237 0.011315411 -0.0017008724 0.03769034
-0.027941015 0.0054136724 -0.009575041 -0.036165033 -0.027132168 -0.020909797 0.035730284 0.017598651
-0.013921699 -0.029384438 0.02929679 -0.017608982 -0.040369757 -0.034957115 0.029778723 -0.0099192625
-0.026038714 -0.03806969 -0.023690633 -0.0011111064 0.014343067 0.014793694 -0.00041300754 0.019128555
-0.02383805 0.011656523 -0.002539614 0.0075911405 -0.0059560514 0.01715475 -0.008956707 -0.001658649
-0.02617047 0.0053870366 0.0067887725 0.038118433 -0.01670072 0.013654867 0.02358118 0.035845034
-0.020226907 0.009750193 -0.0057083312 0.03658919 0.02637762 -0.008553871 0.0337238 0.026498422
-0.027041692 -0.030979147 -0.00887502 0.03640404 -0.018510237 -0.027692106 -0.032532986 -0.02395475
0.021661565 -0.0007796598 -0.006462986 -0.019033154 -0.012809176 -0.015320344 -0.0030065055 -0.02513161
-0.031659916 -0.021721143 0.03535861 -0.03832968 0.0077720745 -0.03137902 0.022670457 -0.016592689
0.00044676784 0.030474126 0.038391404 0.010863636 -0.007990005 -0.007776085 0.03172421 -0.038196262
-0.027600676 0.030126473 0.013061188 0.02847166 -0.031876605 0.022246411 -0.008348565 0.016189653
-0.028940605 -0.03008662 -0.017377868 0.007561804 -0.0053426865 -0.03745276 0.013420141 -0.008350574
-0.0362803 0.016621023 -0.027125306 -0.0019575323 -0.034257654 -0.029195683 -0.01783101 -0.038700696
-0.002564911 -0.0013182233 0.009857626 -0.038891472 0.0046287905 -0.024832668 -0.025660392 0.024865855
-0.02196492 -0.012802513 0.0016238228 -0.03370865 0.012417422 -0.031930696 0.039723694 -0.036540788
-0.025860421 0.034931388 -0.0012088491 -0.011784955 0.0078001553 0.004289421 -0.024601689 0.002732739
0.030004703 -0.009823456 0.014079638 -0.02139932 0.018688763 -0.019296136 -0.0083484575 0.00021301056
0.0043179058 -0.023416312 -0.030658793 0.020195914 0.022899333 0.0226495 0.012083216 0.030890638
0.015805943 -0.030214459 0.019185038 0.022420045 0.007931406 -0.020811299 0.007114564 0.026565792
0.0321411 -0.011000502 0.015720893 0.025149733 0.015451015 0.036078267 0.009930816 0.028798357
0.0056487047 0.008531591 0.010853357 -0.036824122 0.017437354 0.0029114005 -0.0052087842 -0.03255824
-0.030840954 -0.009142284 -0.012779119 -0.014938581 -0.0049710944 0.039668806 -0.026885733 -0.0029154592
0.024661068 -1.9238061e-05 -0.027246969 -0.020115994 0.028457206 0.035277046 0.03377627 -0.032601904
-0.008796491 -0.035535093 -0.035976138 -0.016633987 0.0038210498 -0.015858654 0.0058776047 0.0045700204
0.030323569 0.036702342 0.012624134 -0.03296753 0.016573563 -0.0006362625 0.032910172 -0.013819834
0.0062926565 -0.03371419 -0.0058642994 -0.018631052 -0.020578481 0.026878515 0.033199526 -0.0010270585
0.029285615 0.015436941 -0.010364517 -0.004704419 -0.026273785 -0.014573603 0.021800373 0.020869529
0.008840733 -0.028413244 0.014081394 0.022597948 0.030650392 0.031191166 0.035708066 -0.03982801
0.037172027 -0.0053659882 0.008643977 -0.03715581 0.017059367 -0.0033664757 -0.026996791 -0.03701075

fca1.weight f4 [300, 4]
00000000: f04e c4be 2265 e93e ae6e b43e b66c 81be
00000010: 1cc9 1ebe 5431 a93e 607b c43c c075 e6bd
00000020: 806a c43c 6025 e8bd e8d7 193e c88f cf3e
00000030: 98cf 643e b44e 193e 6c86 cd3e d0c1 863d
00000040: 28c4 b2be f0a8 323d 2065 ec3d c4de af3e
00000050: ec21 f63e 50c1 90bd 6014 54bd 1cc9 ec3e
00000060: b2d7 ec3e a02f 78be 1ccf 523e 421d 883e
00000070: 00ab 8f3c 8277 803e 5cfe 953e 2a3c f5be
00000080: 2c1d 7e3e ec74 9b3e e48a 303e bef3 e8be
00000090: 2809 853e 36e5 fc3e 32c2 85be 96b7 b9be
000000a0: 1074 9bbd d873 86be a0a4 18be b8d2 5f3e
000000b0: 5866 bdbe 1e35 e0be 1eb3 883e eaf7 a6be
000000c0: 4c3d 3dbe e015 ddbd 74ab 453e d0e3 f9bd
000000d0: a898 873d b8c2 ec3d d442 72be 1008 293d
000000e0: f009 d6bd 84da 403e 4424 46be 2c00 253e
000000f0: 289b ac3e 30ef bebe e4ce b83e 24f3 7e3e
00000100: 50c3 4b3e fa3b 99be 1826 11be e8b1 e1bd
00000110: 3cf6 79be c09d 11be 205b 9f3e 8056 81bc
00000120: d039 34be e4aa 0dbe b863 9a3d 2e3f d2be
00000130: 447d af3e 784c b43e 8eed b33e 689a c6bd
00000140: e819 cebe fe5a a03e 9e78 aa3e f0e1 ffbd
00000150: c0e8 dd3d 58a8 b23e 2204 a43e 9085 8c3d
00000160: a079 b13d 8054 443d d856 b1be d44a 413e
00000170: 0c9e 343e c0db d2bd 548c f43e 42a4 fbbe
00000180: a071 bc3e 2459 3bbe 20a6 9e3d 8eb8 c5be
00000190: 88e3 873d 205c 9d3e f856 ac3e 868e 933e
000001a0: a065 d8bd 2c81 be3e dcd3 a23e 842c a5be
000001b0: 66d5 e23e 8cf4 8bbe c0e0 78bc 4c35 cdbe
000001c0: 903f 8a3d be4e aa3e 888a acbe fc41 183e
000001d0: 30d4 a0bd ae02 ba3e c037 febd 78bd 08be
000001e0: 00c1 c1bb b02a 93be f0c8 e2bd 641a 56be
000001f0: 6edd a6be 8c29 11be 207a ee3c 0c9c 593e
00000200: ca01 893e d0f3 3c3e 0497 743e 5499 d03e
00000210: 68fb c73e 28d3 bdbe ca30 f5be a08b d03e
00000220: 5c00 2b3e 305e 1a3d 423a b93e c0ee 1c3e
00000230: 0e91 8f3e 602b e13e c28c 963e ec0f 4d3e
00000240: 0c43 173e 9c32 2ebe 904f cabd 9404 e2be
00000250: bc38 f73e c09c 233e e293 853e e83c e7be
00000260: ec69 39be 3c8b 21be f4c0 37be 8053 cdbc
00000270: 6ea7 dfbe 0a34 f3be 185c 21be a446 1d3e
00000280: 58c0 4a3e 00db 68bd 36be da3e 7203 bfbe
00000290: 5845 c3be a8b8 953e 34b2 30be 78e1 3a3e
000002a0: 801f 613e 282a 8c3d c252 a4be f823 ccbd
000002b0: f007 17be b0ef d43e bcae e23e 4660 c8be
000002c0: d8f6 823d 0038 9fbe 70a7 7f3d a039 9dbd
000002d0: f09a d2bd 70d6 f43e 6453 633e 30dd cbbd
000002e0: 38c2 b53e 9061 833e 6e1c 953e fc4a afbe
000002f0: 02d3 c43e 6886 ecbd 18a6 c0bd a479 0b3e
00000300: 7075 f63e 622a dc3e 203c e73e a82d adbe
00000310: 6e47 883e d002 823e b049 693e f265 fc3e
00000320: 8019 d43b a0c3 c3be 7c64 123e 6828 d8be
00000330: 74e6 b63e b4cf 2e3e 4232 fabe 48e9 a43d
00000340: d07c 97be 98ad d13e c07b ffbc d861 72be
00000350: 80b5 0c3c 1ca9 babe 1eb7 9dbe 0850 58be
00000360: c6a7 af3e 1027 d8be 2ef3 a4be beb2 94be
00000370: 706d 103e de98 8b3e 0854 9dbe d825 7bbe
00000380: bebb a83e 523e c0be 2e88 dbbe b8ec 583e
00000390: 045e eb3e 98ca a53e 1831 aebd 326e ae3e
000003a0: 7808 05be 20d1 71be 086a 553e 0071 2ebc
000003b0: 4828 b7bd d48f 1e3e 0091 37bd 2444 ff3e
000003c0: 3035 38bd 6ece b3be e806 313e f4bf db3e
000003d0: 0831 173e 0020 403a a80d 9ebe b41e b73e
000003e0: f04f 833e dab3 833e fcc6 563e 5466 d6be
000003f0: a4e3 6cbe 9048 f5be c025 cebd 0024 f9bd
-0.38341475 0.4558497 0.35240692 -0.25278252 -0.15506405 0.33045447 0.023984611 -0.11252928
0.023976564 -0.11335254 0.15023768 0.40539384 0.22344816 0.14971429 0.40141618 0.065799356
-0.3491528 0.043618143 0.115427256 0.34349644 0.48072755 -0.070681214 -0.051777244 0.46247184
0.46258312 -0.24236917 0.20586818 0.26584822 0.017537594 0.25091177 0.29295623 -0.47897464
0.24815816 0.30362642 0.17240483 -0.4549846 0.25983548 0.49393624 -0.26124722 -0.36272877
-0.075904965 -0.26260257 -0.1490655 0.21857727 -0.36992145 -0.43790525 0.26699156 -0.32611018
-0.18480414 -0.10795188 0.19303685 -0.12201655 0.06620914 0.11560577 -0.23658305 0.041267455
-0.10451114 0.18833357 -0.19349772 0.16113347 0.33712125 -0.3729186 0.36095345 0.24897438
0.19898725 -0.2992857 -0.14174688 -0.11020261 -0.24410337 -0.14220333 0.3112421 -0.015788317
-0.17600179 -0.13834721 0.07538551 -0.41063827 0.34275258 0.3521459 0.35142177 -0.096974194
-0.4025414 0.31319422 0.3329515 -0.12494266 0.10835409 0.3489406 0.32034403 0.068614125
0.08665776 0.047932148 -0.3463657 0.18876201 0.17638415 -0.1029582 0.47763312 -0.49148756
0.3680544 -0.18295723 0.077465296 -0.38617367 0.06635195 0.30734348 0.33660102 0.28819674
-0.105662584 0.37207925 0.3180226 -0.32260525 0.44303435 -0.27335012 -0.015190303 -0.40079725
0.06750405 0.332632 -0.3369944 0.14868921 -0.078529716 0.3633017 -0.12412977 -0.13353527
-0.0059129 -0.28743505 -0.11073482 -0.20908505 -0.32590812 -0.14176005 0.029110968 0.21250933
0.26759177 0.18452382 0.23885733 0.4074198 0.39058995 -0.37075162 -0.47888786 0.40731525
0.16699356 0.03768748 0.3617726 0.15325451 0.28040355 0.43978405 0.29404265 0.20025605
0.1477167 -0.17011493 -0.098784566 -0.44144118 0.48285472 0.15977764 0.26089388 -0.45163655
-0.18106812 -0.1577577 -0.179447 -0.02506423 -0.43682426 -0.4750064 -0.15757787 0.15358979
0.19799936 -0.05684948 0.42723244 -0.37307316 -0.38138843 0.29242444 -0.17255479 0.18250072
0.21984673 0.06843978 -0.3209439 -0.09967798 -0.14749122 0.41589117 0.44273937 -0.3913595
0.06394738 -0.31097412 0.06241554 -0.07677007 -0.10283458 0.47819853 0.2219978 -0.099542975
0.3549974 0.25660372 0.29123253 -0.34236896 0.38442236 -0.115490735 -0.0940668 0.13620621
0.48136473 0.43001086 0.4516306 -0.33823895 0.26616997 0.2539277 0.22782016 0.49296528
0.0064727664 -0.38235188 0.14296144 -0.42218328 0.35722697 0.1707142 -0.4886647 0.08052307
-0.29587412 0.40952754 -0.031186938 -0.23670137 0.008588195 -0.36457145 -0.3080377 -0.2112428
0.34307688 -0.42217302 -0.3221678 -0.2904262 0.14104247 0.27265066 -0.30728173 -0.24526155
0.32955736 -0.37547547 -0.42877334 0.21184051 0.45970166 0.3238113 -0.08505458 0.34068447
-0.12991512 -0.23614931 0.20841229 -0.0106470585 -0.0894323 0.15484554 -0.044816017 0.49856675
-0.0449726 -0.3511843 0.17287791 0.42919886 0.14764798 0.0007328987 -0.30869794 0.35765612
0.25646925 0.25723153 0.20974344 -0.41874945 -0.23133713 -0.47906923 -0.10065794 -0.121650696

fca1.bias f4 [300]
00000000: cc86 d3be 5e4d a43e 8623 9dbe 6cc0 883e
00000010: d45a a4be 8005 bc3d d6d2 e8be aa3b a4be
00000020: e040 78bd 0642 9c3e 82a1 ca3e 9c5d 3dbe
00000030: 14c2 19be 8a2b c03e c0f8 41be 58db 69be
00000040: 6479 4d3e 00a7 573e c838 75be 1cd9 dd3e
00000050: 02b3 843e e6d2 f5be 14a8 303e dc3b 4e3e
00000060: 309e 5ebd 5cc9 53be e613 89be b285 e93e
00000070: 04d8 a2be b89a 663e 0474 ac3e 5c67 0abe
00000080: 5c18 4ebe 58d8 a43e e068 863c 0055 a4bb
00000090: ec9a 88be c083 ffbd d0d6 523d 0023 403e
000000a0: 8ea0 f5be f062 3bbe befe 903e 706a 043d
000000b0: 088f 273e 5846 423e 2c5f af3e 3863 073e
000000c0: 006a a2bd dca8 8ebe e87f 96be 92d6 a7be
000000d0: a0c7 0b3d 40b0 5dbd 042e e6be d624 d23e
000000e0: 6cc4 443e e8c5 b0be 5651 f5be 605f 4b3e
000000f0: 3ed4 fcbe 1c55 443e 9cdd 3a3e 9ea1 ccbe
00000100: 7402 4f3e 0c8d 2ebe a4bb 62be 1c5b 6c3e
00000110: 5612 933e 6026 a63e fe2c b43e 5e14 c33e
00000120: 3876 72be 0e0d 9e3e 1ca0 ec3e f8ec 8e3e
00000130: c075 f8be b286 f23e ec46 113e 9238 e03e
00000140: 18df 353e 5076 bf3e da91 a8be 00c6 873b
00000150: e840 59be e8a1 413e 8c91 5b3e 84c2 c13e
00000160: 10d5 673e c868 52be f800 5bbe bae7 b03e
00000170: 729a 94be 8626 d4be 604d 76be 6cd8 5e3e
00000180: 4cec 973e 304f f5be 48b2 af3d e034 853d
00000190: d099 453d 3876 803d 40c7 893e 7cee 63be
000001a0: e8d5 963e 68b4 bdbd b4e0 3e3e 1af8 8fbe
000001b0: 80e2 a43b 44af a6be 0070 fa39 bee0 ee3e
000001c0: 48f9 9ebe c8a9 acbd d8ac 213e e891 bc3d
000001d0: 9c5f 543e 76f7 b43e 7a75 bebe 0e73 fdbe
000001e0: e4ac ea3e 90dd 2c3d aa7c 8dbe b630 92be
000001f0: 80b7 2a3c b2b0 e9be 7a2b c6be b475 043e
00000200: 405f 913c 2834 133e e084 64bd 6c26 9fbe
00000210: e0a3 4e3e 9c6e e3be dec9 83be b8a2 c5bd
00000220: 3053 fe3d eef0 913e 2a59 ab3e c03e 6a3d
00000230: 30bf 18be bebb c43e 5a68 8b3e 4469 10be
00000240: 6420 e0be e048 883c 04a4 25be a07c dd3c
00000250: f056 c93d f6b9 f2be 648c 7ebe e0ab b6be
00000260: 881c 523e 0e2d dbbe c0f0 9b3d f842 8cbe
00000270: d03f b6be 68ff eb3e b889 33be ba7b c7be
00000280: 4683 993e ba63 f93e ca0f c1be d0c8 7fbe
00000290: a48c d7be 8c14 3cbe 7090 053d c83b 89bd
000002a0: d8ca c4bd a03a fd3c 7a61 dd3e deef fb3e
000002b0: a2fb 90be c449 83be 0e62 ae3e 864c a7be
000002c0: c0cd 013e 7af5 ef3e 6c29 6e3e 98d2 fdbe
000002d0: 8c2d e43e 601d 86bc e87e 663e 4cbe 3a3e
000002e0: 1833 bb3e 10cf fb3d 2cce b0be 74b3 61be
000002f0: f88e 343e 6490 163e 3c01 a2be 0e62 c73e
00000300: a4b2 d83e acbf c0be ac1e 993e 489f f7bd
00000310: 10c7 8c3e 1cbd e93e 3086 403e 38ef aa3e
00000320: 00a5 f03b 0841 e43e aa2a ab3e 0046 943a
00000330: 94fc 663e c49c 49be 82e2 f33e a64a c43e
00000340: 9e32 ecbe 686d 8bbd 9041 5dbd 6044 8abc
00000350: 5810 34be 10ad 723d a056 8a3d b0ac 83be
00000360: 249c d6be f4f8 96be ac58 ac3e 3043 5d3e
00000370: a0c3 883d cce2 933e 5ab4 9bbe 2aa3 9fbe
00000380: c08c 3b3d 24fb 443e 7075 063e b844 adbe
00000390: c484 76be 2c74 b03e c0a2 d53d 7c10 7a3e
000003a0: b495 4cbe 82ab d13e a615 d33e 96df 923e
000003b0: b007 043d 4ef2 8cbe 3e24 bbbe 70ef 113e
000003c0: c006 66bd e8fd febe c0de 323e 601a 1e3d
000003d0: 9c21 b63e 88b7 b13d 0087 963e b895 b63e
000003e0: 800d 4abe dce6 b6be 1cff 0dbe 7875 97be
000003f0: e452 083e 68ae 9bbe 0259 933e c49c e33e
-0.4131378 0.32090276 -0.30691165 0.26709306 -0.32100546 0.091807365 -0.45473355 -0.3207677
-0.060608745 0.30519122 0.39576346 -0.1849274 -0.15015441 0.37533218 -0.18942547 -0.22837579
0.20065838 0.21059799 -0.23947442 0.43329704 0.25917822 -0.48012465 0.17251617 0.20140022
-0.054350078 -0.20682281 -0.26772994 0.45609814 -0.31805432 0.22519958 0.33682263 -0.13515991
-0.2012648 0.32196307 0.01640743 -0.0050150156 -0.26680696 -0.12476301 0.051474392 0.18763351
-0.47974056 -0.1829946 0.28319353 0.03232807 0.16363156 0.18972147 0.34252298 0.13221443
-0.07930374 -0.27863204 -0.2939446 -0.32780892 0.034125924 -0.054123163 -0.44956982 0.4104373
0.19215554 -0.3452599 -0.47913617 0.19860601 -0.49380678 0.19173092 0.182486 -0.39967054
0.2021578 -0.17045993 -0.22141892 0.2308163 0.28724927 0.32451153 0.35190576 0.38101476
-0.2367791 0.30869335 0.46215904 0.27915168 -0.48527336 0.4736839 0.14187211 0.4379316
0.17760885 0.37394953 -0.32923776 0.0041434765 -0.21216166 0.18909419 0.2144224 0.37843716
0.2263987 -0.20547783 -0.21387088 0.34551793 -0.29024082 -0.4143564 -0.24052954 0.21762246
0.29672468 -0.47911978 0.08578926 0.06504226 0.04824239 0.062725484 0.26909828 -0.22258943
0.29460073 -0.092629254 0.18640405 -0.28118974 0.0050318837 -0.32555592 0.00047767162 0.4665584
-0.31049562 -0.08430821 0.15788591 0.09207517 0.20739597 0.35345048 -0.37199003 -0.49501842
0.4583503 0.042203486 -0.27634174 -0.28552788 0.010419726 -0.4564262 -0.38705045 0.12935525
0.017745614 0.14375365 -0.055790782 -0.31084 0.20179701 -0.44420326 -0.2573995 -0.09650177
0.124182105 0.28504127 0.33466464 0.05718875 -0.14916682 0.38424486 0.2722805 -0.14102656
-0.43774712 0.016636312 -0.16175848 0.027036965 0.09831035 -0.47407502 -0.24858242 -0.35678005
0.20518696 -0.42807811 0.07614279 -0.27394843 -0.3559556 0.46093297 -0.17533004 -0.38961583
0.29982966 0.48708898 -0.3770736 -0.24978948 -0.42099488 -0.18367213 0.03260845 -0.067008555
-0.09609002 0.030911744 0.4323843 0.49206442 -0.2831698 -0.25642216 0.34059185 -0.3267557
0.12676144 0.4686697 0.23257989 -0.49574733 0.44566 -0.016371429 0.22509348 0.18236655
0.3656242 0.122953534 -0.34532297 -0.22041112 0.17632663 0.14703518 -0.31641567 0.38941997
0.42323792 -0.37646234 0.29906213 -0.12090927 0.27495623 0.45652092 0.18801188 0.33385634
0.0073438883 0.44580865 0.33430988 0.0011312366 0.22557288 -0.19688708 0.4763375 0.38338202
-0.46132368 -0.06807977 -0.054017603 -0.016878307 -0.1758436 0.059247077 0.06754804 -0.25717688
-0.41916 -0.2948681 0.336614 0.21607661 0.066779375 0.2888397 -0.30411035 -0.31179172
0.045788527 0.19236428 0.13130736 -0.3384149 -0.24074084 0.34463632 0.10431433 0.24420351
-0.19978982 0.40951163 0.41227454 0.28686208 0.032233894 -0.27528614 -0.36551088 0.14251494
-0.05615878 -0.4980309 0.17467785 0.038599372 0.35572517 0.08677584 0.29399872 0.356611
-0.19731712 -0.35723007 -0.13866848 -0.2958181 0.1331287 -0.304065 0.28778845 0.4445554

fc1.weight f4 [1, 300]
00000000: e9ea 3c3b 754f 51b9 d568 12bb 3879 40bb
00000010: 96bb 0db9 179e aeba 4d72 223b 0ad2 fbba
00000020: 4223 813a c3c5 1c38 724a 2cbb f69b 38ba
00000030: 542b 5939 bdb8 7d3a fcd8 083b 6558 44bb
00000040: 8779 9bba 28bf f73a becb dd3a 35ce 9cba
00000050: 4648 093b 213a ab3a 9af8 e53a e42c 333b
00000060: 06d1 26bb d626 d4ba cfbe 363b c2e3 053b
00000070: dfaf 733a a363 d2ba 3f38 c33a 3d43 37bb
00000080: 97c2 8b3a e5ec 2c3b 0ebf bcb9 8d51 4c3a
00000090: 0468 153b 53bc d3ba d95e 403a 97a6 30bb
000000a0: 8b03 333b 6613 97ba 9cb1 03bb b610 13bb
000000b0: 5a90 d1ba 25dc 6fba efb8 ed3a cfcf 2bbb
000000c0: c530 ab3a 764e daba 44b5 ceb9 b68e 013b
000000d0: 1bf3 afb9 ba22 1f3a abec d13a e340 9eba
000000e0: 4510 a6ba b8f2 04bb b2c5 c13a 94df 013b
000000f0: 4a21 763a 8bd1 b4ba cac8 33bb 583b a1ba
00000100: 9c14 e03a 7f5e 6bb9 8439 a5ba 9703 133b
00000110: 2dc0 7aba 7d28 3d3b fb4f 263b ab33 9dba
00000120: 424e 393b ee0a dcba 8f67 613a 788c 8e3a
00000130: 4623 12bb 6b27 a03a c7cc 8bba 7630 39bb
00000140: 6a18 0fbb e9a5 11bb 50a1 9439 59fb 053b
00000150: d53e c6ba cb59 1dba 9ba9 b2ba 0219 c03a
00000160: 13f4 f5ba dbe2 343b 4694 5b3a b828 1e3a
00000170: 5bcc 023b 4493 3e3b e4e2 23bb aa69 a1ba
00000180: 39e6 cb3a ef36 acba 0848 403b 3dc0 d33a
00000190: ddf5 05bb 029a 003b 6bf0 a33a 6b2e ea3a
000001a0: d6dd 0b3b 9869 c23a b495 30ba 39a1 c5ba
000001b0: 235b 97b7 372a 21bb db19 2f3b 6215 3d3b
000001c0: 8b10 fdba f45e ac3a fb38 27bb 000b 35bb
000001d0: dfef e93a d56e 303b 9143 07bb 87b2 e33a
000001e0: 50ba b13a bd73 6eba ebd9 c4ba dc88 39bb
000001f0: bea7 dd3a 294c e8b9 1580 3f3a eba3 243b
00000200: bc77 d03a f2e5 13bb 0c18 01ba d194 aab9
00000210: 1b1b e23a 9e2f 1cb9 cb35 2dbb 86f5 063b
00000220: 155c c539 f168 29bb 9ad9 06bb f27d f83a
00000230: 679b 08bb b8ec 8eb9 c7e6 9eba 37d1 ee39
00000240: 83a0 ae37 22af 403b 5732 d23a dcf1 9f3a
00000250: e443 283b dd2d 643a 29ac ca38 eeb4 123a
00000260: ad2a d13a aecf 65ba d08d fd3a 849a 8cba
00000270: 606b b43a 98b4 0cba e212 11bb 9709 f63a
00000280: d391 3a3a c4bc ddba 9838 25bb aa69 cb39
00000290: fe1e 44ba a1d5 adba f056 413a 0e9a cfba
000002a0: 3c5c d5ba 71ee 3a3b 3414 283b c5aa 6b3a
000002b0: 07e9 a23a 7563 c638 8f19 a2ba e30a 12ba
000002c0: 58a5 23b9 e521 32ba 1d85 6b3a dc94 933a
000002d0: cebb 253b 39f0 4db9 ec71 1238 7b06 643a
000002e0: 3158 dab9 9641 183a 83f4 033b 1829 9bba
000002f0: 51af 0ebb ac90 6139 b234 b63a cf6f 22bb
00000300: cdb6 123b 9870 a3b9 9374 ec3a 59f7 06bb
00000310: b263 583a 6efc d0ba fc7b b7b9 3a16 02bb
00000320: 7d13 07ba 7547 3e3b a743 1a3b b0ce b13a
00000330: 9550 07bb 4136 043b 5353 b5ba 49d4 3fbb
00000340: 0c42 6a38 d7dd eb39 c1b8 733a 68d7 1ebb
00000350: ed32 a0ba 0402 40b9 9c78 33bb 7997 f139
00000360: b657 69b9 f35d 87ba aa10 773a b7a8 383b
00000370: 206a 1a3b bd6c b939 c466 823a b052 dfb9
00000380: 60a6 323b d98a 0b3b 3c1f 24bb 5902 e2ba
00000390: b033 0f3a 8fb2 ae3a 961d bf39 ad0d a03a
000003a0: 6f15 0d3b 094b 00bb b889 593a c3c9 78ba
000003b0: 812d 0d39 a5d5 d63a 6d41 02bb 04a4 2e3a
000003c0: f638 df38 03a5 09bb 5905 3ebb 8702 eeba
000003d0: 6952 bcba 03d3 24bb 77aa 22bb 4ede 0abb
000003e0: 9e61 a9ba f889 1cbb 5edf bdba 20ff 1b3b
000003f0: 9cf0 203a 1d07 38bb ce5b c53a 75e4 793a
0.002882654 -0.00019961393 -0.0022340317 -0.0029369127 -0.00013516689 -0.0013322261 0.0024787367 -0.0019212377
0.0009852427 3.737748e-05 -0.002628949 -0.0007042283 0.00020710874 0.0009678712 0.0020881286 -0.0029959914
-0.001186178 0.0018901573 0.0016921682 -0.001196331 0.002094762 0.0013063588 0.0017545403 0.002733999
-0.0025454178 -0.001618589 0.0027884727 0.0020429944 0.0009295921 -0.0016051423 0.0014894082 -0.002796366
0.0010662851 0.0026386317 -0.000360005 0.00077941344 0.0022797594 -0.0016154147 0.0007338352 -0.0026954764
0.0027315344 -0.0011526167 -0.0020094877 -0.002244038 -0.0015988455 -0.00091499306 0.001813678 -0.0026216393
0.0013060799 -0.0016655463 -0.00039426435 0.00197689 -0.0003355973 0.00060705433 0.0016015967 -0.0012073781
-0.0012669644 -0.0020286273 0.0014783649 0.00198171 0.0009389116 -0.0013795359 -0.0027432912 -0.0012301011
0.0017095986 -0.00022446549 -0.0012605642 0.002243256 -0.00095653796 0.0028863244 0.0025377262 -0.0011993548
0.0028275405 -0.0016787925 0.00085985 0.0010875603 -0.0022298857 0.0012218779 -0.0010665887 -0.0028257645
-0.002183462 -0.0022224134 0.00028348947 0.0020444004 -0.0015124927 -0.0006002455 -0.0013630869 0.001465589
-0.0018764756 0.0027601037 0.00083762815 0.0006033289 0.001995823 0.0029079476 -0.0025007064 -0.0012314816
0.0015556283 -0.001313893 0.002933981 0.0016155314 -0.0020440735 0.0019623046 0.0012507563 0.0017866617
0.0021341941 0.0014832495 -0.00067361747 -0.0015077955 -1.8043042e-05 -0.0024591812 0.0026718292 0.0028851856
-0.0019307298 0.0013150857 -0.002551614 -0.0027624965 0.0017847976 0.002692153 -0.0020639638 0.0017371931
0.0013559554 -0.0009096226 -0.0015018558 -0.0028310334 0.0016910953 -0.00044307232 0.00073051575 0.0025122117
0.0015904824 -0.0022567478 -0.0004924543 -0.00032535804 0.001725051 -0.00014895058 -0.0026429768 0.002059312
0.00037643375 -0.0025849903 -0.0020576478 0.0018958433 -0.002084458 -0.0002726072 -0.001212322 0.00045550775
2.081716e-05 0.0029401262 0.0016036731 0.0012202817 0.0025675232 0.0008704344 9.664178e-05 0.00055964186
0.0015958153 -0.00087666034 0.0019344632 -0.0010727202 0.001376491 -0.0005367487 -0.00221365 0.0018771169
0.00071170664 -0.0016917218 -0.0025210734 0.00038797903 -0.0007481425 -0.0013262519 0.00073753204 -0.0015838759
-0.0016278098 0.002852347 0.0025646808 0.0008989985 0.0012429067 9.459901e-05 -0.0012367236 -0.000557108
-0.00015606487 -0.0006795212 0.0008984374 0.0011259574 0.0025288942 -0.00019639813 3.491521e-05 0.00086984754
-0.00041645908 0.0005808113 0.0020134754 -0.0011837808 -0.0021771977 0.00021511567 0.0013901202 -0.0024785881
0.002238679 -0.00031173672 0.0018040113 -0.0020594208 0.0008254602 -0.001594437 -0.00034996856 -0.0019849674
-0.0005152745 0.002903429 0.002353886 0.0013565626 -0.0020647396 0.002017394 -0.0013834037 -0.002927082
5.585146e-05 0.00044987976 0.0009297245 -0.002423728 -0.0012222208 -0.00018311298 -0.0027385121 0.00046079958
-0.00022253286 -0.0010327682 0.00094247854 0.0028176734 0.002356179 0.00035366966 0.000994884 -0.00042595482
0.0027259812 0.0021292476 -0.0025043031 -0.0017243131 0.0005462719 0.0013328361 0.00036452402 0.0012211107
0.0021527668 -0.0019575974 0.0008298415 -0.0009490514 0.0001346376 0.0016390575 -0.0019875423 0.00066620135
0.000106440784 -0.0021002896 -0.0028994887 -0.0018158712 -0.0014367822 -0.0025150187 -0.0024820843 -0.0021189633
-0.0012922769 -0.0023885947 -0.0014486124 0.002380319 0.0006139369 -0.0028080412 0.0015057267 0.0009532639

bn1.weight f4 [600]
00000000: 0000 803f 0000 803f 0000 803f 0000 803f
00000010: 0000 803f 0000 803f 0000 803f 0000 803f
00000020: 0000 803f 0000 803f 0000 803f 0000 803f
00000030: 0000 803f 0000 803f 0000 803f 0000 803f
00000040: 0000 803f 0000 803f 0000 803f 0000 803f
00000050: 0000 803f 0000 803f 0000 803f 0000 803f
00000060: 0000 803f 0000 803f 0000 803f 0000 803f
00000070: 0000 803f 0000 803f 0000 803f 0000 803f
00000080: 0000 803f 0000 803f 0000 803f 0000 803f
00000090: 0000 803f 0000 803f 0000 803f 0000 803f
000000a0: 0000 803f 0000 803f 0000 803f 0000 803f
000000b0: 0000 803f 0000 803f 0000 803f 0000 803f
000000c0: 0000 803f 0000 803f 0000 803f 0000 803f
000000d0: 0000 803f 0000 803f 0000 803f 0000 803f
000000e0: 0000 803f 0000 803f 0000 803f 0000 803f
000000f0: 0000 803f 0000 803f 0000 803f 0000 803f
00000100: 0000 803f 0000 803f 0000 803f 0000 803f
00000110: 0000 803f 0000 803f 0000 803f 0000 803f
00000120: 0000 803f 0000 803f 0000 803f 0000 803f
00000130: 0000 803f 0000 803f 0000 803f 0000 803f
00000140: 0000 803f 0000 803f 0000 803f 0000 803f
00000150: 0000 803f 0000 803f 0000 803f 0000 803f
00000160: 0000 803f 0000 803f 0000 803f 0000 803f
00000170: 0000 803f 0000 803f 0000 803f 0000 803f
00000180: 0000 803f 0000 803f 0000 803f 0000 803f
00000190: 0000 803f 0000 803f 0000 803f 0000 803f
000001a0: 0000 803f 0000 803f 0000 803f 0000 803f
000001b0: 0000 803f 0000 803f 0000 803f 0000 803f
000001c0: 0000 803f 0000 803f 0000 803f 0000 803f
000001d0: 0000 803f 0000 803f 0000 803f 0000 803f
000001e0: 0000 803f 0000 803f 0000 803f 0000 803f
000001f0: 0000 803f 0000 803f 0000 803f 0000 803f
00000200: 0000 803f 0000 803f 0000 803f 0000 803f
00000210: 0000 803f 0000 803f 0000 803f 0000 803f
00000220: 0000 803f 0000 803f 0000 803f 0000 803f
00000230: 0000 803f 0000 803f 0000 803f 0000 803f
00000240: 0000 803f 0000 803f 0000 803f 0000 803f
00000250: 0000 803f 0000 803f 0000 803f 0000 803f
00000260: 0000 803f 0000 803f 0000 803f 0000 803f
00000270: 0000 803f 0000 803f 0000 803f 0000 803f
00000280: 0000 803f 0000 803f 0000 803f 0000 803f
00000290: 0000 803f 0000 803f 0000 803f 0000 803f
000002a0: 0000 803f 0000 803f 0000 803f 0000 803f
000002b0: 0000 803f 0000 803f 0000 803f 0000 803f
000002c0: 0000 803f 0000 803f 0000 803f 0000 803f
000002d0: 0000 803f 0000 803f 0000 803f 0000 803f
000002e0: 0000 803f 0000 803f 0000 803f 0000 803f
000002f0: 0000 803f 0000 803f 0000 803f 0000 803f
00000300: 0000 803f 0000 803f 0000 803f 0000 803f
00000310: 0000 803f 0000 803f 0000 803f 0000 803f
00000320: 0000 803f 0000 803f 0000 803f 0000 803f
00000330: 0000 803f 0000 803f 0000 803f 0000 803f
00000340: 0000 803f 0000 803f 0000 803f 0000 803f
00000350: 0000 803f 0000 803f 0000 803f 0000 803f
00000360: 0000 803f 0000 803f 0000 803f 0000 803f
00000370: 0000 803f 0000 803f 0000 803f 0000 803f
00000380: 0000 803f 0000 803f 0000 803f 0000 803f
00000390: 0000 803f 0000 803f 0000 803f 0000 803f
000003a0: 0000 803f 0000 803f 0000 803f 0000 803f
000003b0: 0000 803f 0000 803f 0000 803f 0000 803f
000003c0: 0000 803f 0000 803f 0000 803f 0000 803f
000003d0: 0000 803f 0000 803f 0000 803f 0000 803f
000003e0: 0000 803f 0000 803f 0000 803f 0000 803f
000003f0: 0000 803f 0000 803f 0000 803f 0000 803f
1.0 1.0 1.0 1.0 1.0 1.0 1.0 1.0
1.0 1.0 1.0 1.0 1.0 1.0 1.0 1.0
1.0 1.0 1.0 1.0 1.0 1.0 1.0 1.0
1.0 1.0 1.0 1.0 1.0 1.0 1.0 1.0
1.0 1.0 1.0 1.0 1.0 1.0 1.0 1.0
1.0 1.0 1.0 1.0 1.0 1.0 1.0 1.0
1.0 1.0 1.0 1.0 1.0 1.0 1.0 1.0
1.0 1.0 1.0 1.0 1.0 1.0 1.0 1.0
1.0 1.0 1.0 1.0 1.0 1.0 1.0 1.0
1.0 1.0 1.0 1.0 1.0 1.0 1.0 1.0
1.0 1.0 1.0 1.0 1.0 1.0 1.0 1.0
1.0 1.0 1.0 1.0 1.0 1.0 1.0 1.0
1.0 1.0 1.0 1.0 1.0 1.0 1.0 1.0
1.0 1.0 1.0 1.0 1.0 1.0 1.0 1.0
1.0 1.0 1.0 1.0 1.0 1.0 1.0 1.0
1.0 1.0 1.0 1.0 1.0 1.0 1.0 1.0
1.0 1.0 1.0 1.0 1.0 1.0 1.0 1.0
1.0 1.0 1.0 1.0 1.0 1.0 1.0 1.0
1.0 1.0 1.0 1.0 1.0 1.0 1.0 1.0
1.0 1.0 1.0 1.0 1.0 1.0 1.0 1.0
1.0 1.0 1.0 1.0 1.0 1.0 1.0 1.0
1.0 1.0 1.0 1.0 1.0 1.0 1.0 1.0
1.0 1.0 1.0 1.0 1.0 1.0 1.0 1.0
1.0 1.0 1.0 1.0 1.0 1.0 1.0 1.0
1.0 1.0 1.0 1.0 1.0 1.0 1.0 1.0
1.0 1.0 1.0 1.0 1.0 1.0 1.0 1.0
1.0 1.0 1.0 1.0 1.0 1.0 1.0 1.0
1.0 1.0 1.0 1.0 1.0 1.0 1.0 1.0
1.0 1.0 1.0 1.0 1.0 1.0 1.0 1.0
1.0 1.0 1.0 1.0 1.0 1.0 1.0 1.0
1.0 1.0 1.0 1.0 1.0 1.0 1.0 1.0
1.0 1.0 1.0 1.0 1.0 1.0 1.0 1.0
